Classification-using-Logistic-Regression/checkpoint.pth.tar (torch, 13506 bytes, 24 tensors)

network.0.weight f4 [20, 2]
000000 83 46 b8 3e a5 3d 9f 3e ca 14 32 bf 8b ed 1e 3f
       0.35991296 0.3110172 -0.6956297 0.6208121
000010 81 2a a1 3e 20 4e 60 3f 9d 9a 8e 3c ca 0e e6 be
       0.3147774 0.8761921 0.01740771 -0.44933158
000020 10 ec be be 7b f2 d4 3e 3a a3 e3 bf ad 70 06 bf
       -0.37289476 0.41591248 -1.7784188 -0.5251568
000030 6d 3d 8e b8 ab 92 c0 b9 1d e7 7a 3f 7b c3 a4 be
       -6.782529e-05 -0.0003673037 0.980089 -0.3218039
000040 2d 07 2d 2d 8c c8 b4 2c 53 ea 09 be 54 a3 c0 be
       9.835505e-12 5.138173e-12 -0.13468294 -0.3762461
000050 7d 22 68 be 40 1e 6e 3e 42 fa e0 3b e1 12 d0 be
       -0.22669406 0.23253727 0.0068657706 -0.40639403
000060 c5 cf 31 2c 64 ee 12 2c 45 c0 c0 bc fe 08 17 bc
       2.5268548e-12 2.0880181e-12 -0.023529181 -0.0092184525
000070 a8 5c 8d bf 87 7e 28 be 1b 94 22 bc 1a 48 1b bf
       -1.1043901 -0.16454516 -0.009923006 -0.60656893
000080 d9 1d 88 bc db 82 87 be 2f 14 5e bc a1 14 9c be
       -0.016615795 -0.26467022 -0.013554617 -0.3048449
000090 52 1a 9e af b1 15 f9 ae af c6 b1 bd e8 88 a1 bd
       -2.8758734e-10 -1.1327062e-10 -0.08680474 -0.07887441

network.0.bias f4 [20]
000000 51 c5 24 be b4 8a 1e 3e 65 d7 3b be d1 04 cf 3e
       -0.16090895 0.15482599 -0.18343885 0.40433362
000010 2e ee 5d 3d f6 2c 40 3f 00 1d 56 bc 72 28 8c bd
       0.054182224 0.75068605 -0.013068438 -0.06843652
000020 ec 26 b3 b7 2a 1e e0 3e 35 f7 53 3d 37 1f 5a 3e
       -2.1356587e-05 0.43773013 0.051749427 0.2130097
000030 40 e6 42 b7 88 94 94 bd ff c4 4e 3f 15 98 15 3f
       -1.161691e-05 -0.072548926 0.8076934 0.58435184
000040 6e 44 00 3f 0f d5 e9 3e f6 a6 bf b8 40 a4 23 be
       0.50104415 0.45670363 -9.1386886e-05 -0.15980625

network.2.weight f4 [10, 20]
000000 8e e9 50 ba 54 8d e9 b8 45 73 3c bb ce 39 57 ba
       -0.00079693727 -0.0001113663 -0.002875523 -0.00082102127
000010 15 54 c7 b9 18 31 1f b9 a4 a2 2b 26 ab 54 ce ba
       -0.00038018884 -0.0001518171 5.954796e-16 -0.0015741786
000020 a1 79 f2 9f 99 95 ee b9 c7 e3 24 b9 00 78 81 b9
       -1.02692205e-19 -0.00045506356 -0.00015725112 -0.00024694204
000030 b8 05 83 1d 60 35 78 1d 0b f9 9d 39 88 53 a8 ba
       3.4681324e-21 3.285012e-21 0.00030130925 -0.0012842277
000040 ef c2 06 bb 99 5c e3 ba 27 0c eb a3 44 04 e8 9f
       -0.0020562967 -0.0017346322 -2.5483898e-17 -9.826288e-20
000050 a7 5a e3 3d 0d df 5f be 6c 6d df 3d c7 ec 84 bd
       0.11101275 -0.21862431 0.109095424 -0.06490474
000060 96 c5 bf bd 0f ae 3e bc 54 6a 22 2c 71 b2 57 3e
       -0.093638584 -0.0116381785 2.3080609e-12 0.21064164
000070 64 5a 47 a3 07 05 dc bd 1c ce 8c bd 00 58 59 bd
       -1.08069526e-17 -0.107431464 -0.0687525 -0.05306244
000080 16 5a 30 29 b2 48 ac 36 25 be 2d 3d a9 6e a8 bd
       3.9157988e-14 5.1344623e-06 0.042417664 -0.08224232
000090 96 8c fb 3c 10 eb 3d 3d e8 9d e2 26 b3 12 12 b9
       0.030706685 0.04636675 1.5724701e-15 -0.00013930611
0000a0 8d 35 b7 3e 04 09 0f be 96 f9 c3 3e 3f 78 0e be
       0.35783044 -0.13968283 0.38276356 -0.13913058
0000b0 f5 b5 3c 3e 3a c4 ca bf 3b e4 ac 3c b1 4f 8f 3e
       0.18428786 -1.5841134 0.021104923 0.27990487
0000c0 cb 14 36 33 75 d4 55 be 66 f1 ce 3d 89 cf 7e 3d
       4.239409e-08 -0.20881827 0.10104637 0.06220964
0000d0 04 c7 16 2b cd 18 1e bc 8b 9c b9 3f 92 48 dc be
       5.3566895e-13 -0.009649468 1.4500898 -0.43024117
0000e0 d8 07 a4 3d c1 21 90 3d ab ad 96 b3 e8 35 63 3d
       0.080093086 0.07037688 -7.016509e-08 0.05547133
0000f0 32 dc 09 3e b1 db 98 be 38 26 45 3e eb 27 b0 bd
       0.13462904 -0.2985511 0.1925286 -0.08601364
000100 6b 56 d9 bd 98 86 b1 bf ce d3 b2 3a 89 a1 19 3f
       -0.10612186 -1.38692 0.0013643445 0.6001211
000110 6e 19 5e 24 a6 64 1a be 9e 96 b9 bd a9 65 05 bd
       4.8160116e-17 -0.15077457 -0.09061931 -0.032567654
000120 44 2c 28 29 6e 91 c0 bb a9 ba b4 3f 66 49 3c be
       3.7341888e-14 -0.0058767116 1.4119464 -0.18387374
000130 98 a7 8e bd 17 1b 28 bd 79 16 0e aa e4 9b 2b 3d
       -0.0696556 -0.04104146 -1.261993e-13 0.041896716
000140 bd 25 db 21 7d 2c 02 38 94 b3 55 2a 3a 05 3a 20
       1.4850006e-18 3.103585e-05 1.8980504e-13 1.5756542e-19
000150 c8 cd 11 38 a0 1f 9d 1f 33 13 02 9f ea e4 a6 9f
       3.4762343e-05 6.6544406e-20 -2.7544452e-20 -7.068244e-20
000160 c1 a0 ed 1e 6b 87 dd 9e 85 f7 96 b7 73 2e ff b8
       2.5159837e-20 -2.3455293e-20 -1.7996654e-05 -0.000121679994
000170 1e c2 6b 9f 28 70 c0 9f 04 e8 a8 28 86 d2 9a 1f
       -4.9923756e-20 -8.150071e-20 1.8752368e-14 6.556982e-20
000180 0e e2 70 b4 6d a0 98 b4 d6 7b 40 1f 27 01 af 9f
       -2.243398e-07 -2.842893e-07 4.0760016e-20 -7.411729e-20
000190 26 27 e1 bd ee 5d d8 3d 40 a3 ec be 9f b0 34 3e
       -0.10993795 0.10564791 -0.462183 0.176455
0001a0 9e bd 40 bd 7c be d9 3f fd ce 9f 3b 80 df d2 bc
       -0.047055833 1.7011256 0.00487697 -0.025741339
0001b0 f9 93 d7 b2 ff 10 3e 3e 7c d4 1e 3e 38 13 84 3e
       -2.5096584e-08 0.18561171 0.15510744 0.25795913
0001c0 18 48 51 a9 4f 1a 0f 3c 34 cf d2 bf ff ca 52 3e
       -4.6469854e-14 0.0087343 -1.6469483 0.2058525
0001d0 bc 31 94 3e 24 01 ca 3e 23 a4 a4 33 4e 20 77 bd
       0.28944194 0.39453995 7.6667014e-08 -0.060333543
0001e0 ed 86 14 3e 41 9b 87 bd e5 aa 34 3e f9 ce ba bd
       0.14504595 -0.06621409 0.17643316 -0.09121508
0001f0 12 3c 1d be c0 5a c9 bf 40 5a 65 3b 22 6f 17 3f
       -0.15354946 -1.573082 0.003499642 0.5915395
000200 e6 e6 b0 a6 ab 32 82 be b4 73 9b 3d 09 68 0a bd
       -1.2275038e-15 -0.25429282 0.07590428 -0.033790622
000210 45 55 e2 aa 4e b0 58 bc 94 d7 c8 3f 1e 69 c6 be
       -4.0204832e-13 -0.013225628 1.5690789 -0.38752073
000220 6e b8 5e be 95 df ac 3d 0a c6 9d ac b3 34 7f 3d
       -0.21750042 0.084410824 -4.484195e-12 0.062306117
000230 eb 42 1a bc 51 cc 63 bb 94 0d 36 bd b0 32 4c bc
       -0.009415369 -0.0034759233 -0.044446543 -0.012463257
000240 18 55 bc bb a9 ec 81 36 94 7f bb 1f b0 f5 d9 bc
       -0.0057474487 3.8720505e-06 7.940864e-20 -0.02660641
000250 a1 e5 64 9f 18 16 2a bc 5e 02 12 39 e1 4f 91 39
       -4.8470823e-20 -0.010381244 0.00013924527 0.0002771607
000260 b6 76 83 9f 89 80 42 2c d2 11 62 bc 72 90 e5 bc
       -5.567705e-20 2.764041e-12 -0.013798194 -0.028022978
000270 05 15 50 bd d9 f2 2a bd 97 c5 4c 9f 4a a1 2d 1f
       -0.050801296 -0.041735504 -4.3362123e-20 3.676759e-20
000280 3b 36 cd bb d8 fb 4d b7 c1 7c 26 bd 29 c5 0e bb
       -0.0062625683 -1.2277589e-05 -0.04064632 -0.0021784997
000290 7a 72 fc bb ea 62 aa 32 67 bb 96 24 67 f7 fd bc
       -0.0077040764 1.9835586e-08 6.53696e-17 -0.03100176
0002a0 0c 31 33 9e dc 8d 35 ba f7 76 ee bb 2a bb 83 b7
       -9.486324e-21 -0.0006925741 -0.0072773653 -1.5703572e-05
0002b0 dd a9 c7 9f 6c 5b 17 2b bc e9 7c b5 e4 a8 44 bc
       -8.4560793e-20 5.377285e-13 -9.4217444e-07 -0.012003157
0002c0 cc b1 22 bd 0b 6d 2a bd 65 79 63 9e 1f 63 65 ac
       -0.03972034 -0.041607898 -1.2042384e-20 -3.259788e-12
0002d0 0c de d0 3c dc d9 be be 82 38 29 bc 2d c3 68 bd
       0.025496505 -0.3727559 -0.010328414 -0.05682676
0002e0 0b 59 46 be 35 64 4d be 92 7e bc ab f9 75 d4 3e
       -0.19369905 -0.20057757 -1.3393334e-12 0.41496256
0002f0 88 62 05 a2 e4 48 04 be ee f5 0c be 73 73 5a bd
       -1.8077023e-18 -0.1291843 -0.1376569 -0.053332757
000300 42 50 d1 a9 fa c4 c4 37 a9 24 37 3f b2 ce 9b bd
       -9.295387e-14 2.3456745e-05 0.71540314 -0.076077834
000310 51 a3 93 3c 3d 19 15 3d a1 08 bf a6 ae a3 0f 3a
       0.018022211 0.036401022 -1.3255626e-15 0.0005479407

network.2.bias f4 [10]
000000 49 08 81 bb 73 19 ba ba 24 ba 6b be 95 88 da bd
       -0.0039377552 -0.0014198258 -0.23020226 -0.10670582
000010 71 08 55 b8 47 3c 87 3e 3b d2 fc bd 9c 07 b5 bd
       -5.079102e-05 0.26413175 -0.12344786 -0.08839342
000020 96 52 d1 bd d6 11 7a bd
       -0.1022083 -0.061052166

network.4.weight f4 [10, 10]
000000 82 8d 8b bb 3a 82 7e 3e da a8 15 bf 17 e8 f9 be
       -0.0042588124 0.24854365 -0.5846077 -0.48809883
000010 50 7a 1a a0 46 92 49 3f fb 00 50 bf ee 82 24 bd
       -1.3084777e-19 0.7873882 -0.81251496 -0.040163927
000020 8f 0c ed 3c 36 6f c0 3c d2 fb 3b 3b 0a 81 c8 3d
       0.028936652 0.02349053 0.0028684032 0.09790237
000030 3d e3 37 3f 24 f9 19 3f 07 5d 28 28 26 c5 23 bf
       0.71831113 0.60145783 9.3460455e-15 -0.639727
000040 fd fc 03 3f bc d5 65 3d c9 3e 4b bd b0 96 59 3e
       0.51557904 0.056112036 -0.049620423 0.21248889
000050 3b 87 4b 3b 55 89 b7 3d c7 84 31 3f b7 49 17 3f
       0.0031055945 0.08961741 0.6934323 0.59096855
000060 e4 13 9e 32 c1 59 16 bf 21 f9 2b 3f f1 6d 8c 3d
       1.8402666e-08 -0.58730704 0.67177016 0.06856907
000070 5e 92 86 bd 12 a9 6f 3e d6 d5 47 3b ef 58 0b 3e
       -0.06570886 0.23404339 0.0030492446 0.13608144
000080 ef 5e 3a 3f 70 d2 09 3f b7 9c 79 21 dd ec 3d bf
       0.7280111 0.5383673 8.457189e-19 -0.7418955
000090 21 3e 33 3f 6a e9 64 3d 57 39 4c bd 81 18 5e 3e
       0.70016676 0.055886663 -0.04985937 0.21689035
0000a0 56 ea 28 3b a7 6e a8 3d 2b 2a 09 3f e0 a3 0c 3f
       0.002577444 0.0822423 0.5357997 0.54937553
0000b0 f0 11 73 21 f8 31 11 bf 1c b2 1f 3f d1 88 3f 3d
       8.235534e-19 -0.5671687 0.6238115 0.046761338
0000c0 93 64 09 bd 21 81 7d 3e 88 e1 2f 3b 40 8b 53 3d
       -0.03354318 0.2475629 0.0026837308 0.05164647
0000d0 c3 dd 11 3f a3 89 15 3f af 16 2e 20 67 35 02 bf
       0.56979007 0.5841314 1.4745879e-19 -0.50862736
0000e0 53 b0 14 3f 32 46 60 3d 74 82 22 bd 5f f1 53 3e
       0.5808155 0.054754443 -0.03967519 0.20697545
0000f0 f4 b8 52 bb f3 cb 19 3e 3b 37 fb be a1 2b 93 be
       -0.0032153698 0.15019207 -0.49065575 -0.28744224
000100 34 8f 0d 1f 9a 1a 5c 3f 4d d7 14 bf bd 29 8f bd
       2.9976366e-20 0.8597809 -0.5814102 -0.06990383
000110 4f e1 60 3d f5 59 35 39 21 d9 3b 23 d6 9b 1f ab
       0.05490237 0.00017295017 1.0183269e-17 -5.6704413e-13
000120 61 58 44 2e 94 70 32 2e 54 ab 89 1e 3d fe 8b 2c
       4.4643737e-11 4.0572504e-11 1.4576299e-20 3.9788437e-12
000130 a6 e1 34 2e 00 f3 d1 1b 76 0d a3 28 ac 1f 34 2e
       4.1127678e-11 3.4733185e-22 1.8102473e-14 4.0955392e-11
000140 b4 bb 67 37 61 f1 2d bd 1c 28 c1 3d ad c3 52 3c
       1.3812376e-05 -0.042466525 0.094314784 0.012864036
000150 c1 1c 01 ac 56 63 28 bd ac d7 87 3d 34 4e 12 38
       -1.8347964e-12 -0.04111036 0.06632933 3.4881945e-05
000160 62 88 d8 2f 9f 29 ea bc ff de 50 3b 24 3d fb 3d
       3.9387077e-10 -0.0285843 0.0031871197 0.12267521
000170 3e 8e ff 3e a6 8a 25 3f f0 04 cb ac 9e 9e 4b bf
       0.4991321 0.64664686 -5.770155e-12 -0.79538906
000180 b2 8f 3b 3f c6 02 7b 3d f5 a3 7e bd 59 d0 51 3e
       0.73266137 0.06128194 -0.06216808 0.20489635

network.4.bias f4 [10]
000000 e0 69 90 3e 00 86 50 bb cb e4 14 bd 88 f1 76 3d
       0.28205776 -0.0031818151 -0.036351006 0.060288936
000010 8a dd 59 bd 7c a8 50 bd 7d 40 2e 3f b0 fe 1c ae
       -0.05318979 -0.05094193 0.6806715 -3.56965e-11
000020 b0 6b 6c bd 55 ab d5 3d
       -0.057719886 0.104330696

network.6.weight f4 [2, 10]
000000 5f cb 70 bf 8d ec 4b 3f b5 d5 65 3f 79 61 37 3f
       -0.9406032 0.7965782 0.89779216 0.71633106
000010 ef d2 17 3f 5c 5e 3c 3f 14 66 83 bf d1 5c cd 2e
       0.59306234 0.7358148 -1.0265527 9.338808e-11
000020 e3 2b cb bd d5 f8 73 3f 42 13 70 3f 1e d1 41 bf
       -0.0992048 0.9530156 0.93779385 -0.7570971
000030 00 e4 6b bf 66 9b 5c bf b7 30 46 bf c5 71 2f bf
       -0.92144775 -0.8617462 -0.7741808 -0.68532974
000040 35 fd 16 3f 3c 9a c9 ae 90 12 be 3d a4 25 53 bf
       0.58980113 -9.167819e-11 0.09280884 -0.8247931

network.6.bias f4 [2]
000000 cb b1 0e bf 04 0d dc 3e
       -0.5574004 0.4297868

exp_avg f4 [20, 2]
000000 c4 80 93 ba 80 94 89 b9 fd d2 cc bb c1 df 29 bc
       -0.0011253585 -0.00026241317 -0.0062507377 -0.0103682885
000010 66 f9 93 bb 1e 05 72 3b 50 dc d1 3a 0c 98 ba ba
       -0.0045158146 0.003692932 0.0016011093 -0.0014235987
000020 84 cc fc b9 f0 fd ad 39 60 ff ca bc 8a 7d 42 bd
       -0.00048217562 0.0003318633 -0.024779975 -0.047483005
000030 44 a1 c2 b3 fd 7c da b4 39 5d 10 bc 6f da a5 bb
       -9.063163e-08 -4.0696605e-07 -0.0088112885 -0.0050614397
000040 02 bc 25 a7 30 dc db 27 14 d8 19 3b b0 31 fc b9
       -2.300027e-15 6.102344e-15 0.002347474 -0.00048102206
000050 1f 50 0d bb 69 2d 5f bb 7c aa 84 ba 9c fa e0 b9
       -0.0021562648 -0.0034054166 -0.0010121609 -0.00042911328
000060 8b 89 d1 a7 08 6c bb 27 8a 30 e7 b7 e0 54 45 b7
       -5.8158277e-15 5.2020054e-15 -2.7559949e-05 -1.17618765e-05
000070 00 1f 77 39 d7 e7 15 bd d8 8a 1a 3b 64 2e 39 bb
       0.00023567304 -0.036598053 0.0023581292 -0.002825641
000080 a4 82 c4 3a 78 13 45 ba c0 dc e6 b9 d3 a1 66 bb
       0.0014992547 -0.00075178547 -0.0004403349 -0.003519167
000090 f9 ca 7a ab 89 7c e7 aa 93 5c d2 b8 fd 07 bf b8
       -8.9099523e-13 -4.1120257e-13 -0.000100308236 -9.109078e-05

exp_avg_sq f4 [20, 2]
000000 d3 15 33 3c 05 d7 23 3c 04 be c3 3a 8d 15 05 3b
       0.010930496 0.009999995 0.0014933948 0.0020307035
000010 b5 3e b0 3c 1a 4d a0 3c b5 52 71 3b 0f 89 5a 3b
       0.021514276 0.019568015 0.003682298 0.0033345853
000020 52 e6 4f 39 2a 53 4e 39 6b c0 e3 3b 5b 75 b7 3c
       0.0001982686 0.00019676672 0.0069504282 0.022394827
000030 bc 7f 19 34 74 a3 37 35 e8 83 08 3d 3d f8 e9 3c
       1.4295705e-07 6.841067e-07 0.03332892 0.028560752
000040 ec db 78 33 e2 32 6c 33 11 29 32 3c 13 f9 22 3c
       5.7942017e-08 5.499431e-08 0.010874049 0.009947079
000050 f6 06 e1 38 a9 cb f6 38 2f ca c4 39 28 c0 88 39
       0.000107301326 0.00011768129 0.00037534672 0.0002608311
000060 84 bc 1f 33 66 9f 0b 33 b0 f7 b3 34 6b 8a 3f 34
       3.7191526e-08 3.250843e-08 3.3521565e-07 1.7838617e-07
000070 46 41 00 3e 03 a6 29 3e 90 ce a6 3c 17 1d 9a 3c
       0.125249 0.16567235 0.020362169 0.0188127
000080 c6 a3 82 3b 5e 73 6a 3b d9 cd 95 3a 0b 6f 82 3a
       0.0039868085 0.003577433 0.0011429145 0.0009951306
000090 9d 0c 87 33 e4 49 85 33 75 f9 cc 34 b2 3f ce 34
       6.288722e-08 6.206736e-08 3.8179465e-07 3.8416835e-07

exp_avg f4 [20]
000000 4c eb e7 3b ea 04 cd bb 56 bf 17 3c 54 86 94 bb
       0.00707761 -0.0062566893 0.009261927 -0.0045326147
000010 ba 75 ba b9 f2 9c 05 be 23 9f 68 b7 88 89 ed 3b
       -0.00035564398 -0.13048151 -1.38653295e-05 0.007249061
000020 25 ee e1 b2 b4 43 f0 bb 18 3f 5b bb 09 bb ab bb
       -2.6301743e-08 -0.0073322896 -0.0033454355 -0.005240802
000030 ca 65 87 b2 73 57 a3 b8 88 fe 02 3d 46 a0 5f bc
       -1.5762357e-08 -7.7887344e-05 0.03198102 -0.013649052
000040 ac e6 b5 bb 82 8e c2 bb d0 19 ef b3 54 8d 31 b9
       -0.00555118 -0.0059373984 -1.1134e-07 -0.00016932684

exp_avg_sq f4 [20]
000000 7d 0a 05 3d e9 b5 be 3b 53 63 83 3d a0 5f 35 3c
       0.032480706 0.005820025 0.06415429 0.011070162
000010 0a 72 22 3a e7 ab 13 3e 60 7e f4 35 a8 be ba 3d
       0.0006196803 0.14421044 1.8216197e-06 0.09118396
000020 2f 0f 6e 34 18 e7 05 3d 54 c9 bc 39 49 20 9b 3a
       2.2171001e-07 0.03269109 0.00036008155 0.0011835183
000030 24 5b 10 34 aa 8c af 35 a6 eb 38 3f ca ed 7b 3d
       1.3444202e-07 1.3079455e-06 0.7223457 0.06150607
000040 85 3d 43 3c a6 24 5e 3b 71 89 80 34 5a 1d fa 35
       0.011916523 0.0033896356 2.394186e-07 1.8634994e-06

exp_avg f4 [10, 20]
000000 c5 c6 b1 b5 a9 98 87 b5 4b c6 1e b6 9b 4b 82 b5
       -1.3245377e-06 -1.0102714e-06 -2.3659256e-06 -9.707759e-07
000010 ae 1c 32 b5 52 f3 c3 34 c8 5c 0b 22 35 2c b1 b5
       -6.63519e-07 3.649862e-07 1.888713e-18 -1.3200394e-06
000020 92 9c ba 99 e1 58 87 b5 96 c4 d2 b4 e9 40 88 b4
       -1.9295187e-23 -1.0084151e-06 -3.9258583e-07 -2.5379202e-07
000030 49 c9 c1 19 96 6f 78 17 1f d4 90 b5 f6 e0 aa b5
       2.003703e-23 8.0273963e-25 -1.0790571e-06 -1.2731459e-06
000040 8d 83 c9 b5 29 19 ab b5 ee 13 71 1d 05 8d 35 99
       -1.5013953e-06 -1.2747815e-06 3.1906388e-21 -9.385959e-24
000050 42 41 d9 b9 66 72 50 ba 84 59 a5 ba 68 bd d7 b9
       -0.00041438086 -0.0007951617 -0.0012615179 -0.00041149114
000060 3c f8 d0 b9 96 2a 14 36 d4 86 0f 26 63 be 86 b9
       -0.000398578 2.2078507e-06 4.979582e-16 -0.0002570032
000070 d2 47 0a 9e 44 07 f0 b9 17 9e 9b b9 d0 db 49 b7
       -7.320511e-21 -0.0004578178 -0.0002968169 -1.2031713e-05
000080 33 2e db a2 23 5d e3 31 89 a8 10 ba d8 e8 13 ba
       -5.9408984e-18 6.617158e-09 -0.0005518278 -0.00056423014
000090 84 56 53 ba 9d 5e 1f ba 62 78 9b 9f 35 e0 90 b4
       -0.0008061903 -0.0006079467 -6.584421e-20 -2.6985222e-07
0000a0 4b 6e 10 bb 24 b9 42 3b 27 93 90 bb a8 1d ac 3a
       -0.0022038396 0.0029712403 -0.004412073 0.0013131397
0000b0 d4 f6 4b 3b b7 41 0d 3b 61 35 b9 37 3b 7e a3 bb
       0.0031122463 0.0021554062 2.2078575e-05 -0.004989413
0000c0 e7 2b 90 2e d2 34 08 3b 2f 66 89 3a 08 c4 1c 3b
       6.5561605e-11 0.0020783436 0.0010482724 0.0023920555
0000d0 e1 67 b9 25 95 ab 4c b7 49 ba b7 3b b8 55 33 3b
       3.2162775e-16 -1.2199297e-05 0.0056069237 0.0027364325
0000e0 18 37 b5 3a 90 00 aa 3a d4 24 f9 ae 38 b7 8c 38
       0.0013825623 0.0012970138 -1.1329751e-10 6.7098474e-05
0000f0 87 7f dd ba af ee 3d 3b d4 4c 49 bb 3c fc ed 3a
       -0.0016898968 0.0028981378 -0.003071596 0.0018156837
000100 f3 e5 33 3b 70 63 20 3b 9f f6 ce 35 3e 91 5b bb
       0.0027450293 0.0024473332 1.5419972e-06 -0.003350332
000110 ec 6f 90 20 36 fe 21 3b e0 c2 6b 3a 3a 4a 12 3b
       2.4468613e-19 0.0024718172 0.0008993577 0.0022322075
000120 20 dd e6 25 1a fa 02 b7 78 dd c5 3b 88 fd 65 3b
       4.004848e-16 -7.806835e-06 0.006038364 0.0035093743
000130 90 1d 0d 3b 8c 69 fe 3a 6d ac cd a4 66 c7 5d 38
       0.0021532513 0.0019410118 -8.919668e-17 5.287621e-05
000140 ba 85 fa 9b 5a 36 1f 33 ec 32 df 25 4a c2 ca 1a
       -4.144545e-22 3.7069505e-08 3.871884e-16 8.385913e-23
000150 74 39 33 33 80 97 1f 9a f8 7f 9b 9a e6 71 39 9a
       4.172894e-08 -3.300281e-23 -6.431324e-23 -3.834911e-23
000160 28 fc 5b 19 28 a3 8b 9a 07 c0 bf b2 d9 49 1a b4
       1.1372957e-23 -5.7752646e-23 -2.232265e-08 -1.4369233e-07
000170 9e 85 be 99 e9 d8 8b 98 e7 01 73 a3 f0 81 b8 9a
       -1.9699507e-23 -3.614968e-24 -1.3173459e-17 -7.631054e-23
000180 e8 b3 b3 af 34 64 e4 af b5 b9 b2 99 f8 4a a0 19
       -3.2687741e-10 -4.1544157e-10 -1.8479775e-23 1.6573892e-23
000190 bc c9 04 bb 14 50 1c bc 5a 18 f9 bb 40 a7 51 bb
       -0.0020261845 -0.0095405765 -0.00760178 -0.0031990558
0001a0 a1 f0 f2 bb 9c fe ba bb 4b b3 ab 36 00 3d 3f 3a
       -0.007413939 -0.0057066213 5.1170696e-06 0.00072951615
0001b0 ee f7 2b ae ea 9a 90 bb 76 a5 51 bb e4 fd 1a bb
       -3.9101104e-11 -0.0044129984 -0.0031989492 -0.0023649866
0001c0 74 c9 2a 26 8c 6f 3b 37 e1 e8 29 bc 36 a7 c5 bb
       5.925362e-16 1.117204e-05 -0.010370464 -0.006031896
0001d0 9c ba ee bb 14 ff b4 bb 78 5f 07 2f 6a 1f 99 b8
       -0.007285429 -0.0055235717 1.2312096e-10 -7.30146e-05
0001e0 4b bb 08 bb e3 ff 6c 3b e9 66 86 bb 40 5a 45 3b
       -0.0020863588 0.0036163263 -0.0041016233 0.0030113608
0001f0 d0 db 50 3b 08 28 41 3b cf 35 81 36 72 49 51 bb
       0.00318693 0.0029473323 3.8507637e-06 -0.0031934646
000200 d8 4e 3e 22 28 8b 6b 3b f7 06 9f 3a 44 1e 4c 3b
       2.5791541e-18 0.0035941098 0.0012132813 0.003114597
000210 44 dc 82 a4 13 31 88 b7 e1 af f1 3b d6 83 aa 3b
       -5.675166e-17 -1.6235315e-05 0.0073757027 0.0052037043
000220 98 7e 58 3b c8 04 56 3b fc 85 53 a7 27 6f 9b 38
       0.003303444 0.0032656658 -2.9354765e-15 7.41168e-05
000230 49 7b 43 b7 3a 2d a0 b6 0b 84 4a b8 aa 49 87 b7
       -1.165161e-05 -4.7736366e-06 -4.8283528e-05 -1.6127557e-05
000240 5b cf 03 b7 29 c3 45 b3 f0 24 2b 9a 82 6a f9 b7
       -7.856487e-06 -4.6045134e-08 -3.539181e-23 -2.973271e-05
000250 4e 47 7d 19 1e f5 65 b7 a4 86 a5 33 ed b4 98 34
       1.3094193e-23 -1.3706534e-05 7.707902e-08 2.8443847e-07
000260 78 aa c8 19 76 a4 36 a5 b2 d1 93 b7 11 91 08 b8
       2.0748367e-23 -1.5841705e-16 -1.7621413e-05 -3.256003e-05
000270 be 7a 6a b8 8b 5d 45 b8 b8 c6 81 1a 40 cd 1a 9a
       -5.590426e-05 -4.705558e-05 5.36742e-23 -3.2012253e-23
000280 cf f1 fd b6 47 2a d6 b2 c2 c2 39 b8 6b 6b 39 b6
       -7.568138e-06 -2.4932104e-08 -4.428882e-05 -2.7629674e-06
000290 d9 03 19 b7 50 1d cf ae d4 6e ba 1e ef 6a 0f b8
       -9.1204065e-06 -9.418477e-11 1.9739353e-20 -3.4193446e-05
0002a0 71 c6 56 97 6c 9f 7d b5 0a 13 11 b7 1c 7f 03 b3
       -6.93976e-25 -9.4481834e-07 -8.647106e-06 -3.061642e-08
0002b0 39 de 40 9a b5 33 06 a5 32 f3 73 b1 ef c5 67 b7
       -3.988418e-23 -1.1640166e-16 -3.5499395e-09 -1.3814758e-05
0002c0 fe c9 34 b8 12 cf 3c b8 e1 46 cf 17 e3 62 26 25
       -4.3103464e-05 -4.5015542e-05 1.3394954e-24 1.4431709e-16
0002d0 55 73 23 ba 60 c7 7f 3a 67 33 85 ba 90 de 79 39
       -0.00062351424 0.0009757187 -0.0010162414 0.00023829401
0002e0 94 e2 64 3a f2 8f 5d 3a ee a7 a1 a7 15 02 a9 ba
       0.00087312725 0.00084519305 -4.4868546e-15 -0.0012894297
0002f0 86 12 40 1e 08 b2 de 39 0c 74 a4 39 0e 5a 15 3a
       1.0168226e-20 0.00042475783 0.0003136698 0.0005697318
000300 a1 3d 8e a3 06 71 3c 33 9e 51 04 3b 98 83 18 3a
       -1.5421772e-17 4.3874955e-08 0.002019025 0.0005817949
000310 f8 44 b4 39 c0 17 b9 39 3c 60 c7 a1 f6 53 88 b5
       0.0003438366 0.00035303645 -1.3510238e-18 -1.0157225e-06

exp_avg_sq f4 [10, 20]
000000 ac 5a 42 31 1a 96 db 30 50 96 21 32 09 8a 84 31
       2.8282257e-09 1.5977009e-09 9.4056105e-09 3.8573984e-09
000010 7c 62 3a 31 80 e8 d9 2e 89 c6 c4 2e c8 43 11 32
       2.7122544e-09 9.909318e-11 8.948315e-11 8.4555225e-09
000020 cb 35 bb 2e 8f 76 13 31 79 c7 14 31 ce d1 a6 31
       8.513331e-11 2.1458708e-09 2.1650222e-09 4.855088e-09
000030 75 a2 fc 2d aa 46 22 2b a9 a5 9b 30 a9 af b5 31
       2.8721229e-11 5.765203e-13 1.1324818e-09 5.2877636e-09
000040 68 f6 53 32 78 69 4e 32 9e 4b cd 2c d3 89 90 2e
       1.2337843e-08 1.2014759e-08 5.8348456e-12 6.5728444e-11
000050 da de 1f 37 e9 17 55 37 50 b9 36 38 67 01 d7 36
       9.529025e-06 1.2701356e-05 4.3564767e-05 6.4076626e-06
000060 c5 b9 95 37 5d d3 99 34 87 75 e7 30 dc 61 98 37
       1.784869e-05 2.8652258e-07 1.6840865e-09 1.8165381e-05
000070 f0 3a 7a 2f 08 d9 a5 36 09 e0 89 37 55 73 9d 36
       2.2758306e-10 4.942649e-06 1.6435997e-05 4.692391e-06
000080 bc d1 2b 2f 5c cf e3 2f 8c 65 94 36 66 46 62 37
       1.5626872e-10 4.1438397e-10 4.4225653e-06 1.3487041e-05
000090 a5 c2 1c 38 5d f2 2e 38 f3 72 c3 2f 10 f7 1f 30
       3.7374575e-05 4.171055e-05 3.555197e-10 5.819496e-10
0000a0 4e 92 20 3b 57 7f 59 3b 87 2c 36 3c ab cd f4 3a
       0.0024501267 0.0033187473 0.011119015 0.0018677016
0000b0 62 2b 8f 3b 10 ac 04 39 db 85 4a 36 40 0d 9d 3b
       0.0043691853 0.00012652599 3.017826e-06 0.0047928393
0000c0 7a a8 c8 33 15 d5 c6 3a 18 02 83 3b 2e a2 dd 3a
       9.3438715e-08 0.0015169705 0.0039980523 0.0016909295
0000d0 8e 7d 85 32 0c b9 49 34 f6 b9 e0 3a 5e d1 7b 3b
       1.5540333e-08 1.8786903e-07 0.0017145264 0.0038424353
0000e0 f9 c3 25 3c b8 c6 33 3c 48 fc b9 33 af e3 85 34
       0.010117524 0.010972671 8.6606235e-08 2.4938842e-07
0000f0 4a 80 e7 3a 99 80 0c 3b b5 2b 06 3c 23 b0 b1 3a
       0.0017662134 0.0021438955 0.0081891315 0.0013556521
000100 89 7a 3b 3b 5a a1 c2 38 15 1f 08 35 83 ee 6c 3b
       0.0028606972 9.280695e-05 5.070918e-07 0.0036152906
000110 94 a2 65 32 25 5c 94 3a 3c fc 20 3b 50 44 51 3a
       1.336652e-08 0.0011318965 0.0024564406 0.00079828966
000120 d7 ab 16 32 d1 4e 1d 34 c8 7b aa 3a 93 13 3a 3b
       8.770221e-09 1.4650438e-07 0.001300686 0.0028393015
000130 be c6 eb 3b a2 d5 f0 3b d6 ee fa 32 cc 7b 48 34
       0.007195323 0.0073496858 2.921244e-08 1.8671489e-07
000140 03 f1 08 32 c0 6f 96 34 87 67 5a 33 32 3b a0 2f
       7.971042e-09 2.8020986e-07 5.0851238e-08 2.914589e-10
000150 a9 44 90 34 34 ed c0 2e 30 b3 3e 31 0e 74 d4 2e
       2.6872047e-07 8.773285e-11 2.7750495e-09 9.661259e-11
000160 eb 3e 8e 2d da bf 60 30 23 ed 62 34 db 70 a6 34
       1.6171472e-11 8.176336e-10 2.113416e-07 3.1002023e-07
000170 30 b4 30 2e c1 1b 33 2e c6 eb 1d 33 14 35 ce 2f
       4.0177806e-11 4.072454e-11 3.6768846e-08 3.7508896e-10
000180 5d d5 e5 33 b2 13 e4 33 2c dd 0a 2e 3a 2d 58 2e
       1.0702454e-07 1.062066e-07 3.1574007e-11 4.9152883e-11
000190 43 5b 2d 3b b9 05 5f 3b bf 24 40 3c e6 af 0d 3b
       0.0026452101 0.003403051 0.011727511 0.0021619736
0001a0 4a 3e 92 3b 8a 35 1a 39 81 d5 33 36 43 ae b6 3b
       0.004462992 0.0001470653 2.6797354e-06 0.005574973
0001b0 ae d0 c5 33 f2 b3 e4 3a 46 5d 89 3b 2e a3 e6 3a
       9.211486e-08 0.0017448647 0.0041920273 0.0017596239
0001c0 22 7f 91 32 4c f3 3c 34 66 22 f7 3a 80 f1 90 3b
       1.6938035e-08 1.7597375e-07 0.0018854856 0.0044233203
0001d0 fb 47 35 3c e9 3e 43 3c 4b 9e bb 33 1a 74 85 34
       0.011064525 0.011916854 8.7366594e-08 2.4857655e-07
0001e0 f7 dd 33 3b 37 ed 58 3b 27 3f 50 3c 11 8e 09 3b
       0.0027445534 0.0033100375 0.012710369 0.002098922
0001f0 96 77 91 3b 74 0a 17 39 3c 3a 4f 35 7d 6f b8 3b
       0.0044393046 0.00014404376 7.719825e-07 0.005628525
000200 8d 5f db 32 8b ab e5 3a 0d cc 79 3b 1b 1c a2 3a
       2.5538407e-08 0.0017522437 0.0038116009 0.0012367995
000210 b3 42 5a 32 c1 70 73 34 1f 53 03 3b 52 37 90 3b
       1.2704436e-08 2.2672158e-07 0.0020038558 0.004401126
000220 1f 2f 37 3c 37 25 3b 3c 14 5e 3d 33 15 cc 99 34
       0.011180668 0.011422447 4.4090555e-08 2.864696e-07
000230 95 d5 65 34 fb 59 09 34 8e 36 85 35 fa 66 31 34
       2.1404988e-07 1.2791854e-07 9.92515e-07 1.6521872e-07
000240 ae cb 0b 34 3a a0 fc 31 9f 70 2a 2f 1a f2 1f 35
       1.3019482e-07 7.352381e-09 1.5501421e-10 5.958442e-07
000250 30 c5 d5 2d 9f 1d 21 34 9f eb 3b 33 a5 5e 2c 33
       2.4302865e-11 1.500507e-07 4.3753626e-08 4.013295e-08
000260 66 3d 41 2e ad a7 2f 2e b7 29 3e 34 fc 31 c3 34
       4.3937652e-11 3.993932e-11 1.7710305e-07 3.635795e-07
000270 c6 9f 4e 35 77 9a 0c 35 fc 64 15 2f 4f af 8b 2e
       7.697348e-07 5.237884e-07 1.3587348e-10 6.352129e-11
000280 6b bb 88 34 e7 a1 95 33 46 57 7a 35 b3 1a 46 34
       2.5468339e-07 6.967803e-08 9.3259257e-07 1.84499e-07
000290 b6 ae a2 34 93 7c 20 31 00 0c 08 2f 6b 96 46 35
       3.030197e-07 2.3353877e-09 1.2373391e-10 7.3979635e-07
0002a0 82 6a 70 2b 19 6c 0d 34 2b 61 9d 34 49 2e 99 33
       8.541294e-13 1.3170974e-07 2.9314228e-07 7.133037e-08
0002b0 cb 5c f5 2e 6d f7 9f 2a 92 9c 84 33 ad 03 d9 34
       1.11577934e-10 2.841576e-13 6.175209e-08 4.0422074e-07
0002c0 c2 71 88 35 ae e6 91 35 7f 19 64 2b ff a3 e6 29
       1.0165897e-06 1.0870478e-06 8.1037255e-13 1.02425006e-13
0002d0 04 f6 e6 38 32 89 f9 38 06 6c 03 3a 95 fa cb 38
       0.000110130786 0.000118988 0.000501335 9.726469e-05
0002e0 79 2e 25 39 93 81 f3 36 2c 30 47 31 90 6f 86 39
       0.00015752939 7.2570488e-06 2.8985694e-09 0.00025641592
0002f0 65 07 a4 2f da c7 ad 38 83 a9 0a 39 da 7e 1d 38
       2.983668e-10 8.286508e-05 0.00013223854 3.7549857e-05
000300 02 35 be 2f 66 15 1e 32 75 d9 d5 38 2e fb 55 39
       3.4598463e-10 9.201676e-09 0.00010197136 0.00020406835
000310 1c e6 f5 39 c3 3d ef 39 9b ff 2b 30 fe 60 6b 32
       0.00046901486 0.00045631648 6.2572675e-10 1.3700854e-08

exp_avg f4 [10]
000000 ec b0 e9 b5 a7 32 21 bb a0 37 73 3b a0 65 ca 3b
       -1.7411344e-06 -0.0024596842 0.0037112013 0.0061766654
000010 18 7d 81 b3 b5 12 c9 bc 3a ef 13 3c a1 20 c0 b8
       -6.029785e-08 -0.024545053 0.009029204 -9.161351e-05
000020 8e 70 de b8 e0 e4 6c 3a
       -0.0001060675 0.00090367906

exp_avg_sq f4 [10]
000000 24 05 5b 33 95 6f 2d 39 29 83 3e 3d 5b bd 0d 3d
       5.0994586e-08 0.00016540133 0.046511803 0.03460441
000010 c0 9c 9e 34 1d 66 50 3d e2 be 5b 3d e1 7a 9c 36
       2.9543844e-07 0.050878633 0.053648837 4.6634673e-06
000020 62 a8 92 36 05 a9 17 3b
       4.3707414e-06 0.0023141515

exp_avg f4 [10, 10]
000000 12 19 70 b6 58 2a 65 b8 76 31 8f b9 da 89 80 ba
       -3.577738e-06 -5.463729e-05 -0.00027311937 -0.0009806708
000010 f6 a8 0d 1a 60 80 80 ba a7 bb 3a ba 7e 26 38 b8
       2.9294602e-23 -0.0009803884 -0.00071232993 -4.3904867e-05
000020 34 97 05 38 68 6a 4e ba e0 61 11 36 0b 5c 2d 39
       3.185049e-05 -0.0007874132 2.1663654e-06 0.00016532854
000030 4b 3a 33 b8 c0 e7 81 b9 f8 18 05 24 d0 84 e2 39
       -4.2731215e-05 -0.00024777465 2.8860927e-17 0.00043205032
000040 76 b2 a7 b9 dd 89 81 38 21 2c 60 b8 20 8f 95 38
       -0.00031985686 6.1768784e-05 -5.344686e-05 7.131533e-05
000050 8e da 06 36 6d 63 29 39 67 7f 72 b9 e4 16 db b9
       2.0094772e-06 0.00016154135 -0.0002312638 -0.0004178799
000060 7f 9c fd 2d db 4b 24 3a fc 68 a5 b9 67 7f 9b 38
       2.8832268e-11 0.0006267407 -0.00031549472 7.4147065e-05
000070 c3 6c 92 b8 00 07 7e 38 73 f1 1a 36 ff 6e 3b 39
       -6.982081e-05 6.056484e-05 2.308833e-06 0.00017875059
000080 bb 60 4c b8 00 5e d2 b9 03 eb 28 9b a0 76 6e 39
       -4.8727477e-05 -0.00040124357 -1.3972571e-22 0.0002274164
000090 c8 3e 3a b9 44 89 80 38 ce eb 60 b8 10 a2 25 38
       -0.0001776173 6.129083e-05 -5.3625372e-05 3.9489998e-05
0000a0 2a 0a 1b 36 a4 11 51 39 d2 f3 b1 b8 f0 6d e5 b8
       2.3102716e-06 0.00019938365 -8.485433e-05 -0.000109400484
0000b0 96 c0 1f 9b ff fa 06 3a 80 06 89 b8 10 d7 5b 38
       -1.32144e-22 0.00051490957 -6.53388e-05 5.241396e-05
0000c0 80 2e 1a b8 d4 2a 15 39 ee 0a 14 36 c7 9a 2e 39
       -3.6759768e-05 0.00014225702 2.206008e-06 0.00016651592
0000d0 c6 87 cc b8 90 37 e7 b8 09 a6 39 9a c7 8e 1e 3a
       -9.752768e-05 -0.00011025288 -3.8391225e-23 0.0006048497
0000e0 34 80 1b b9 a5 f7 7e 38 f8 d2 34 b8 a0 56 d1 38
       -0.00014829711 6.0788956e-05 -4.3111824e-05 9.982032e-05
0000f0 43 36 1a b6 f4 03 b5 b8 19 c9 a2 39 48 a7 e0 39
       -2.2979373e-06 -8.631489e-05 0.00031048877 0.00042849244
000100 a4 b7 73 9a 60 d1 3a b9 3c b9 56 39 e2 a3 9f b8
       -5.0399566e-23 -0.0001781634 0.00020477636 -7.6122364e-05
000110 e7 fd 75 38 80 0a 6c 37 8a 28 1c 9d 25 2a 16 a8
       5.8649017e-05 1.4069141e-05 -2.0667386e-21 -8.335811e-15
000120 5c 22 a5 a7 84 c1 93 26 14 a1 fa 97 37 bd 30 a9
       -4.5833952e-15 1.0252627e-15 -1.6196533e-24 -3.9243968e-14
000130 c6 cd 2c 28 80 c7 b9 19 4e 76 84 a2 52 75 a6 28
       9.592538e-15 1.9209129e-23 -3.590393e-18 1.8480582e-14
000140 9e 60 d2 32 3a ae 51 b7 2b 4c e5 b7 3a 13 a8 b7
       2.4491154e-08 -1.2497936e-05 -2.7334396e-05 -2.0036114e-05
000150 24 b2 85 a7 ec 0d 49 b7 8e 51 44 b7 ac 35 0d 32
       -3.7108056e-15 -1.1983775e-05 -1.1701499e-05 8.219484e-09
000160 97 8a a3 ac 78 02 3a b7 12 66 10 36 0b c2 7e 39
       -4.648125e-12 -1.1087039e-05 2.1517085e-06 0.00024295614
000170 43 b1 b8 b9 e8 de 71 b9 1a 17 d5 a8 a9 cc 30 3a
       -0.00035227285 -0.0002306659 -2.3657769e-14 0.0006744364
000180 b0 de 46 b9 9a 55 8b 38 bb f5 8a b8 14 af 1b 39
       -0.00018965709 6.643981e-05 -6.626124e-05 0.00014847174

exp_avg_sq f4 [10, 10]
000000 2a b6 18 32 25 b3 bf 38 17 8f 3c 39 93 f0 28 39
       8.888984e-09 9.140958e-05 0.00017982382 0.0001611135
000010 c6 30 39 2f 3b dd b1 39 4b 85 86 38 40 4d 6a 35
       1.684298e-10 0.000339249 6.414446e-05 8.7284207e-07
000020 a1 fb 4d 35 33 7a be 38 8e 92 48 32 c8 31 e9 38
       7.673462e-07 9.0826674e-05 1.1674855e-08 0.00011119578
000030 f7 c7 90 39 e2 2a 4c 39 e3 2d 0a 33 ca ec c5 39
       0.00027614806 0.00019470931 3.2172363e-08 0.0003775119
000040 87 7e c1 38 10 64 4d 35 37 d7 a1 35 94 8f c9 38
       9.226525e-05 7.651406e-07 1.205807e-06 9.6111704e-05
000050 57 5c a3 32 37 81 4b 39 cf 8c f9 39 93 ec a8 39
       1.9017689e-08 0.00019407725 0.00047597892 0.0003221972
000060 85 c6 c3 33 b9 ca 22 3a df 01 29 39 16 72 93 35
       9.1165056e-08 0.00062100176 0.00016117793 1.0985557e-06
000070 85 7b e9 35 2e 0d 23 39 85 a2 47 32 76 fe fc 38
       1.7395802e-06 0.00015549801 1.1620277e-08 0.000120636934
000080 25 19 9b 39 0d 9e 5a 39 64 d1 5a 32 d7 17 d3 39
       0.00029582638 0.00020848979 1.273688e-08 0.00040262818
000090 de b2 cf 38 aa 1a 5c 35 d3 c1 a7 35 86 18 d7 38
       9.903846e-05 8.199519e-07 1.249888e-06 0.00010256567
0000a0 4f a8 fa 31 b4 65 31 38 0d dd ed 38 b0 1a c0 38
       7.295092e-09 4.2294807e-05 0.000113422146 9.1602444e-05
0000b0 4b fd 61 31 1e 44 33 39 17 ac 1a 38 e4 eb 18 35
       3.288579e-09 0.00017096146 3.6876732e-05 5.696768e-07
0000c0 13 6b 5f 35 4e 8a 47 38 fc 73 1d 32 99 2b a9 38
       8.3229787e-07 4.7574104e-05 9.164975e-09 8.066669e-05
0000d0 42 c5 50 39 a1 c6 18 39 3e e7 80 2f f4 ba 93 39
       0.0001990991 0.00014569845 2.3447372e-10 0.00028177316
0000e0 0b 95 8a 38 fd 75 31 35 9b 97 84 35 8f 7b 9a 38
       6.608114e-05 6.6109334e-07 9.878889e-07 7.366307e-05
0000f0 71 1a 6c 32 86 e6 3d 39 be 90 dd 39 30 94 99 39
       1.374302e-08 0.00018110321 0.00042260246 0.00029292842
000100 fc 1e c7 2f 48 50 1c 3a 29 d9 16 39 6b 3b 7d 35
       3.6219905e-10 0.00059628906 0.00014386013 9.433631e-07
000110 2e 4f c8 35 fb 13 16 39 2d 66 0e 2f ea 23 e0 30
       1.4924206e-06 0.00014312558 1.2951125e-10 1.6308352e-09
000120 7f ee f3 30 2f 38 b1 30 ee 35 a4 2b 66 bd b6 31
       1.7748362e-09 1.2894413e-09 1.1667869e-12 5.3184293e-09
000130 17 21 98 30 10 72 0a 2d 24 e5 92 2f 29 45 71 30
       1.106886e-09 7.869719e-12 2.672006e-10 8.777357e-10
000140 50 f6 40 31 6f 9a 7e 32 5a d7 91 35 f0 33 98 33
       2.807969e-09 1.481986e-08 1.0866017e-06 7.087499e-08
000150 b2 b2 5a 33 db 77 f8 35 7c 67 14 34 6e dd 06 30
       5.0919603e-08 1.8512322e-06 1.3821222e-07 4.9063587e-10
000160 a3 16 e7 31 96 c2 3e 32 84 1d 8e 32 03 62 1e 39
       6.7255583e-09 1.1103699e-08 1.6544398e-08 0.00015104566
000170 5b e6 c5 39 59 aa 8a 39 1e 5e 84 33 e1 78 07 3a
       0.00037746396 0.0002644833 6.163849e-08 0.00051678537
000180 0c 04 03 39 13 18 8b 35 4d 5f d5 35 5f da 08 39
       0.00012494641 1.0363314e-06 1.5897473e-06 0.0001305132

exp_avg f4 [10]
000000 91 a1 05 bc 30 ba 88 b9 30 9a 2a ba 80 68 d7 b9
       -0.008156196 -0.00026078662 -0.0006507961 -0.00041085854
000010 f0 ab 55 39 40 5e c4 38 b8 43 89 ba 68 a2 82 aa
       0.00020377315 9.363564e-05 -0.0010472452 -2.320533e-13
000020 ca 24 e4 b8 c8 94 2c 3a
       -0.0001087874 0.00065834494

exp_avg_sq f4 [10]
000000 1b bf 08 3b 18 9e 0a 3b 13 13 4f 3b 53 ce 11 3b
       0.002086586 0.002115136 0.0031597062 0.0022248223
000010 16 3b ae 3a 23 70 dd 3a 23 c0 35 3b 4e 99 d1 31
       0.0013292755 0.0016894381 0.002773293 6.1001293e-09
000020 ba 13 84 36 e7 9c 3b 3b
       3.936203e-06 0.0028627457

exp_avg f4 [2, 10]
000000 d6 6e 71 3a ac 08 ee b9 da 79 cb b9 6c 7b 34 ba
       0.0009209936 -0.00045401359 -0.00038809964 -0.00068848464
000010 30 39 05 ba 60 e0 bd b9 70 b2 56 3a 4b f1 bd a9
       -0.0005082069 -0.00036216062 0.00081900414 -8.435144e-14
000020 2b 38 8f b8 d6 0c ef b9 a8 2c 72 ba bf 6a 01 3a
       -6.8292335e-05 -0.00045595196 -0.00092382217 0.0004936866
000030 7a 03 bf 39 c8 36 0e 3a 22 c5 aa 39 62 81 d8 39
       0.0003643295 0.0005425033 0.00032571802 0.00041295128
000040 91 bb a4 ba 92 b2 c0 29 55 96 80 38 91 4a 19 3a
       -0.0012568106 8.55749e-14 6.131517e-05 0.0005847598

exp_avg_sq f4 [2, 10]
000000 fc fd 04 39 8f 7a 77 39 47 b0 7b 39 ca 6c bf 39
       0.00012683118 0.00023601412 0.00024002894 0.00036511413
000010 ee d5 cf 38 e1 13 20 39 ad e5 79 3a 34 03 4e 31
       9.910377e-05 0.00015266195 0.00095328205 2.9978766e-09
000020 63 03 93 35 d4 0c 8c 39 fb ff 04 39 e6 93 77 39
       1.0953339e-06 0.0002671244 0.00012683861 0.00023610852
000030 11 a1 7b 39 f0 31 bf 39 7a 2e cf 38 76 2d 20 39
       0.00023997227 0.00036467565 9.879186e-05 0.00015275725
000040 7b 50 7a 3a 64 ef 4f 31 98 12 98 35 ae 37 8c 39
       0.00095487357 3.0258542e-09 1.1330294e-06 0.00026744365

exp_avg f4 [2]
000000 dc a7 1b 3a 48 2d 3d ba
       0.0005937794 -0.0007216525

exp_avg_sq f4 [2]
000000 94 22 b1 3a f7 2b b1 3a
       0.0013514333 0.0013517131
