Classification-using-Logistic-Regression/model_best.pth.tar (torch, 13506 bytes, 24 tensors)

network.0.weight f4 [20, 2]
00000000: 037c bf3e cdfd 983e 75b3 20bf 24b3 f63e
00000010: 36d4 a53e 73fd 5f3f 4c5c 953c 4443 e3be
00000020: 6947 a3be 6379 0b3f 674d ddbf 5a21 0cbf
00000030: dbb7 e1bb a1c4 13bb 1952 723f e051 adbe
00000040: 2707 3ab5 690d 67b4 3ecc 0abe 804b b4be
00000050: 7231 7cbe 8579 493e f2c2 efbd 9c7f 8bbe
00000060: 8959 0334 f42f 2a34 4e51 293b 7e3a 90ba
00000070: 4513 88bf b972 39be 382d 7fba 268c 13bf
00000080: 443d 733b 43f6 51be 3eb2 e5bc c9f0 8abe
00000090: e736 05b7 7123 9bb6 823c aabb 884f 1dbb
0.373993 0.29881135 -0.6277383 0.48183548 0.32388467 0.8749611 0.018232487 -0.44387257
-0.3189042 0.54482096 -1.7289246 -0.5473839 -0.0068883724 -0.002254762 0.9465652 -0.33851528
-6.930081e-07 -2.151843e-07 -0.13554475 -0.35213852 -0.24628237 0.19675262 -0.11707105 -0.27245796
1.2232898e-07 1.5849929e-07 0.0025835815 -0.001100376 -1.063088 -0.1811017 -0.0009734216 -0.57635725
0.0037115375 -0.20504098 -0.028039094 -0.2713683 -7.940201e-06 -4.623486e-06 -0.0051952014 -0.0024003703

network.0.bias f4 [20]
00000000: 3cf4 20be 2a64 843e 9e3f 38be 83d2 d33e
00000010: 18de f23d 22a4 3a3f 605a 1cbd 4d4d 75bd
00000020: 087b 35ba 94c0 e03e 8514 033e 2d7d 8d3e
00000030: 00ed bcba 1a50 31bb d67b 493f 6f7a 153f
00000040: be98 093f 8b99 053f 4a65 25bb 1e0b 05bc
-0.15718168 0.2585767 -0.17993018 0.41371545 0.11858767 0.72906697 -0.038172126 -0.059888173
-0.0006922935 0.43896925 0.12800796 0.27634564 -0.0014413893 -0.00270558 0.78704584 0.58389944
0.5374869 0.5218741 -0.0025237375 -0.008120326

network.2.weight f4 [10, 20]
00000000: 7e93 a4bd 053e ebbc 36e8 bdbd 79d7 9abd
00000010: 3cfc 5bbd 463a 41bb 6a05 72af 65e1 d4bd
00000020: 2bd7 daa6 652a 9cbd d3f2 dfbc 2b91 d4bc
00000030: 04bd 61a7 9255 aaa5 1cd8 84bd 413f c4bd
00000040: 6a8b c1bd 8dae acbd b802 92aa f85a 9827
00000050: 59b5 053e d1dd 44be bc1e a23d 1a00 c4bb
00000060: 9934 b3bd cfb1 debd a65b c733 175f a33e
00000070: 5a4e 882a 3f2e 95bd 6417 82bd d4e4 7a3c
00000080: 3947 b2b0 448c a839 60be 113e 2710 14bc
00000090: ffc0 983d 4ee1 be3d 445f 6f2e 36e7 b4b9
000000a0: 21bf bb3e c3b3 7dbd 279f ba3e 0b79 0ebe
000000b0: 0d66 5c3e 35f8 dbbf d0d4 443d efa1 743e
000000c0: 245d cc37 4f31 56be 3c84 fd3d fc03 b73d
000000d0: ee96 2032 3244 0b3b 4d1f b83f 73f8 d5be
000000e0: 979f a13d 7689 8f3d f8a5 82b8 0f81 e7ba
000000f0: 604d 103e c4cd 53be a74d 333e 660f 76bd
00000100: 2239 98bd 9fcd b7bf 5596 3e3c cad3 133f
00000110: 9767 82ac 904d fbbd 204b 88bd b14b 233c
00000120: 63d8 9132 629c ef3a 074d ba3f 06df 10be
00000130: 80fd 71bd d724 ffbc d7a4 0f31 1b3c 55bb
00000140: 9040 c7a9 5366 263a 5a3e 2fb2 d837 2ca7
00000150: ec32 493a 9803 aa27 1cbe c7a6 de6d ad27
00000160: c5b0 26a7 3a08 4a27 b5d7 29ba ddd9 08bb
00000170: 9742 3327 681e 7b26 5f2d 5830 d814 7727
00000180: df0b 8cb8 4f96 b7b8 5fe9 26a7 fc37 fe26
00000190: 3843 32be 78bf 3c3d 149b fabe 37ed 5a3e
000001a0: d7b3 92bd 86e8 c93f 91c1 3f3c 00b8 78bd
000001b0: 4db8 82b7 e4c9 783e d0cd 173e dc92 813e
000001c0: e466 dbb2 59ba 06bb 7180 c0bf 2d63 663e
000001d0: 1eac 9d3e 9aaa d43e be5c 8738 743d b13a
000001e0: 3b60 0c3e 3de2 b23c 2648 123e fe64 a4bd
000001f0: 3bee 07be d9f4 cfbf 01a9 9c3c 2919 0e3f
00000200: 88ab 482f 0415 7dbe 17ae cc3d fcc8 a63b
00000210: 1e98 b7b2 381b 2a3b 0c23 cb3f 3be8 babe
00000220: e74f 64be 94ee ae3d 18cc aab4 5c50 2cbb
00000230: 47bf 1dba 566a 89b9 7250 10ba a0c8 6138
00000240: f86e b1b9 6657 e938 7dc4 a9a6 9879 7039
00000250: a014 1f27 0b19 c4b8 38df 55b9 81d3 8437
00000260: de07 0827 39a1 5a33 67a7 b6b8 8158 8db8
00000270: f58d 71b9 84fd 50b9 aee9 d3a7 c082 ad25
00000280: 3497 1bbe bfb3 6cbd 9719 40be c2c6 dabd
00000290: cdd3 0bbe 00c8 813a 3ca3 682c f2ec 33be
000002a0: 661d d1a5 8d1d b9bd bece 0bbe e793 6dbd
000002b0: 05df 8ba7 60ab 8932 62ee 10bd dbdb 0bbe
000002c0: 7e11 2fbe b021 2ebe 5005 20a5 50a3 08b2
000002d0: 7241 a03d 945a 8ebe 0865 533b fb29 a3bc
000002e0: 4728 25be ff28 51be 56e9 35b4 7fb1 e83e
000002f0: 34b2 4a2b a1da e6bd 4cec efbd 5a65 9d3c
00000300: d64f 6db1 44b1 42b9 eb46 3b3f 58c1 c7bc
00000310: 7be5 433d 1f84 823d a3b3 dcae 14aa 97ba
-0.080359444 -0.028716097 -0.09272806 -0.075606294 -0.053707346 -0.0029484197 -2.2011695e-10 -0.10394553
-1.518511e-15 -0.076252736 -0.027337467 -0.025948128 -3.1327488e-15 -2.9548284e-16 -0.06486532 -0.09582377
-0.09450419 -0.084317304 -2.5936696e-13 4.2287103e-15 0.1305746 -0.19225241 0.07916018 -0.0059814574
-0.087502666 -0.10873758 9.2833304e-08 0.31908485 2.421282e-13 -0.07284211 -0.06352118 0.015313346
-1.2971447e-09 0.00032147963 0.14232779 -0.009037054 0.07458686 0.09320317 5.442692e-11 -0.0003450454
0.36669257 -0.061939012 0.3644955 -0.13913362 0.21523304 -1.7185122 0.048054516 0.23889898
2.4362067e-05 -0.20917247 0.12378737 0.08936307 9.347543e-09 0.0021250364 1.4384552 -0.41791114
0.078917675 0.070086405 -6.229797e-05 -0.0017662364 0.14092016 -0.20683962 0.17510091 -0.06007328
-0.07432772 -1.4359626 0.011632522 0.5774504 -3.706323e-12 -0.12270653 -0.06654954 0.009966777
1.6978623e-08 0.0018280859 1.4554757 -0.14147577 -0.059079647 -0.031145496 2.090294e-09 -0.0032537046
-8.848575e-14 0.0006347645 -1.0200518e-08 -2.3900068e-15 0.00076751295 4.7188375e-15 -1.3859928e-15 4.8136264e-15
-2.3132955e-15 2.803759e-15 -0.0006478981 -0.002088181 2.4877339e-15 8.7124327e-16 7.864482e-10 3.4289435e-15
-6.6779314e-05 -8.754117e-05 -2.3163638e-15 1.7639965e-15 -0.17408454 0.046081036 -0.4894644 0.21379553
-0.07163208 1.5774086 0.011703865 -0.06072235 -1.558303e-05 0.24295765 0.14824605 0.25307357
-2.5541745e-08 -0.002055785 -1.5039197 0.2249877 0.30795377 0.4153641 6.454576e-05 0.0013522343
0.13708584 0.021836394 0.14285335 -0.08027075 -0.13274471 -1.6246597 0.019123556 0.5550714
1.8250834e-10 -0.24715048 0.099941425 0.005089877 -2.1373179e-08 0.0025956165 1.587007 -0.36505303
-0.22296105 0.08541599 -3.1813465e-07 -0.0026293015 -0.0006017577 -0.00026209903 -0.00055051513 5.3831027e-05
-0.0003384275 0.00011126585 -1.1779989e-15 0.00022933481 2.2076863e-15 -9.350673e-05 -0.00020396418 1.5834115e-05
1.8878056e-15 5.090371e-08 -8.7096174e-05 -6.739889e-05 -0.00023036434 -0.00019930868 -5.881762e-15 3.0099316e-16
-0.15194398 -0.057788607 -0.18759762 -0.10682441 -0.13655014 0.0009901524 3.3059796e-12 -0.17570856
-3.6275642e-16 -0.090388395 -0.13653085 -0.05800238 -3.882205e-15 1.6026831e-08 -0.03538359 -0.13658087
-0.17096516 -0.17005038 -1.3879588e-16 -7.953375e-09 0.07824983 -0.2780348 0.0032256264 -0.019917479
-0.16128646 -0.20425795 -1.6941826e-07 0.4544792 7.2012123e-13 -0.11272169 -0.11714992 0.019213367
-3.453342e-09 -0.00018567318 0.7315509 -0.024384186 0.04782627 0.06372856 -1.00363516e-10 -0.0011571073

network.2.bias f4 [10]
00000000: a681 dbbd 275b 0c3d 4c03 63be 8cda a7bd
00000010: c606 78ba 07b7 843e 0d4a edbd 67a2 1bba
00000020: eef2 4dbe bf06 80bc
-0.10718088 0.034266617 -0.22169226 -0.081959814 -0.00094614585 0.2592089 -0.1158639 -0.00059369806
-0.20112202 -0.015628217

network.4.weight f4 [10, 10]
00000000: 7c4f c2bd 13b2 5d3e 97a2 fabe 3701 d5be
00000010: 6fb1 f327 d417 413f 76bf 39bf caf7 58b8
00000020: 603b 223e b5f5 623d ca7d c63d 306b d33d
00000030: 997f 3c3f d6fe 193f 17a8 7b30 3e96 11bf
00000040: 7493 023f e1f0 6138 a277 40be 4c69 433e
00000050: 567b c43d 74d1 b93d 449a 323f 9749 143f
00000060: 5309 4b37 b6c2 03bf 505e 2c3f 37fc 2339
00000070: 844e 49be cc00 563e 6a0d cc3d d0c0 193e
00000080: 202d 3f3f b765 093f c293 5e29 d50e 2bbf
00000090: 7e4f 3a3f 10e7 1e39 c888 3cbe f278 583e
000000a0: 3ed0 c83d 27a1 b43d cb38 0c3f 4f1b 0e3f
000000b0: 64d8 12a8 d3ae f4be 424d 2b3f 9e16 083a
000000c0: a5b8 2ebe 7f56 693e 32f9 cc3d 8872 3d3d
000000d0: 962c 143f bacc 153f f6a4 d627 27a4 ddbe
000000e0: f202 183f e443 21b9 a3e2 32be 91f2 333e
000000f0: 4fc4 c5bd 90ed 4a3e 73a7 f8be 3ee1 6fbe
00000100: f09a 4e24 842a 5d3f 4211 15bf fd1b 96b9
00000110: 407f 383e 18a1 903d e42e 0f2b 65e7 49b1
00000120: dec8 5731 4581 9db0 dba8 4c26 73cb 3431
00000130: 3305 fc30 1511 f826 b44c 21b0 6963 22b1
00000140: 300e 2bbb 8f37 6bbd 25f1 a13d 794a da3c
00000150: 2d3e d133 6bc5 62bd e0fc 903d 7f1b dd34
00000160: 4ae5 8eb7 a4ed 1cbd b566 c83d 7e6c 073e
00000170: 5dea fc3e e487 263f f6a2 a3b4 2ee7 36bf
00000180: 4fc1 403f a064 04b6 44ef 48be cdb3 4c3e
-0.09487817 0.21649961 -0.4895217 -0.4160249 6.7638423e-15 0.75426984 -0.7255777 -5.1729185e-05
0.15842962 0.055410106 0.09691961 0.10323179 0.736322 0.60154474 9.155214e-10 -0.56869876
0.51006246 5.3868516e-05 -0.18795636 0.19083136 0.09593837 0.09073153 0.6976664 0.5792479
1.2101914e-05 -0.5146898 0.6733141 0.00015638849 -0.19658858 0.20898741 0.09963496 0.15014958
0.7467823 0.5367083 4.9422062e-14 -0.66819507 0.72777545 0.00015154132 -0.18411553 0.21139887
0.09805344 0.088198 0.5477416 0.5551042 -8.15155e-15 -0.4778963 0.6691476 0.00051913585
-0.17062624 0.22786902 0.10008468 0.046251804 0.5788053 0.5851551 5.9575783e-15 -0.432893
0.59379494 -0.00015379448 -0.17469268 0.17573 -0.096565835 0.19817185 -0.48565254 -0.23425767
4.4800367e-17 0.86393 -0.5822946 -0.00028631082 0.18017292 0.07061976 5.086888e-13 -2.9380882e-09
3.1400798e-09 -1.1459994e-09 7.100556e-16 2.6309095e-09 1.8336891e-09 1.7213087e-15 -5.868046e-10 -2.363061e-09
-0.0026100986 -0.05742603 0.07907323 0.02664684 9.7436306e-08 -0.055364054 0.07079482 4.1184464e-07
-1.703449e-05 -0.03831257 0.09785215 0.1322498 0.49397555 0.650511 -3.0479686e-07 -0.714465
0.75294966 -1.9728104e-06 -0.19622523 0.19990464

network.4.bias f4 [10]
00000000: cdcf 773e 9daa b43b 272f 0ebd 0c4e b23d
00000010: 8a2a 5abd 954b 60bd e641 313f bed4 cab0
00000020: 2e92 ebbc 9a57 0f3e
0.24200363 0.0055135028 -0.034712937 0.087062925 -0.053263225 -0.05475958 0.6924118 -1.4757899e-09
-0.028756227 0.13998261

network.6.weight f4 [2, 10]
00000000: 2461 53bf 7c2a 413f 55af 5d3f 7f38 2a3f
00000010: bafc 033f babd 323f 731c 84bf 8d08 81b0
00000020: f79e b6bd 3ecf 693f 4090 523f 2c12 36bf
00000030: 7a53 64bf cb57 52bf 56bb 39bf d339 24bf
00000040: 5209 133f 3c8d 6130 330d 823d 8de9 45bf
-0.825701 0.7545545 0.8659566 0.66492456 0.51557505 0.6982075 -1.0321182 -9.388416e-10
-0.08917039 0.9133185 0.8225136 -0.7112148 -0.89189875 -0.8216521 -0.72551477 -0.6415073
0.57436097 8.205523e-10 0.06350174 -0.77309495

network.6.bias f4 [2]
00000000: eb4c 12bf 2d87 e03e
-0.5714862 0.4385313

exp_avg f4 [20, 2]
00000000: 16cf b2bc 7d54 c4bc 1a76 2b3c 2561 133c
00000010: 74f8 f3bc 726c 07bd be64 373c 5553 493c
00000020: 0ba9 fbb9 e0a9 0838 95d2 66bd 46b5 1cbd
00000030: 70d8 0eb7 e813 24b6 f238 34bd bc6b 25bd
00000040: 7c19 98b0 2c4f c3af 6299 a83c b8b6 c03c
00000050: f75f b2b9 315c 833a f1ea 78bb 802e 64b8
00000060: 1242 48af bfd1 902f bc4b a0b5 a8e9 33b6
00000070: f010 213d 8c81 803c 8c4d fc3c 5ed9 0b3d
00000080: 0ed2 543c 380e 863c be47 b83b cb5b 123c
00000090: 2398 50b2 3979 f4b1 02cf 3937 ff9c f136
-0.021827262 -0.023966068 0.010465169 0.008995329 -0.029781558 -0.033062406 0.011193452 0.012287934
-0.00048000398 3.2583135e-05 -0.05635317 -0.038258813 -8.514253e-06 -2.4449491e-06 -0.04399962 -0.040385947
-1.1066699e-09 -3.5526548e-10 0.020580951 0.023524627 -0.00034022305 0.0010021982 -0.0037981833 -5.4402743e-05
-1.8213367e-10 2.634248e-10 -1.194297e-06 -2.6809084e-06 0.039322793 0.015686773 0.030798696 0.034142844
0.012989534 0.016364202 0.0056237867 0.008933018 -1.2141785e-08 -7.115116e-09 1.1075057e-05 7.2006364e-06

exp_avg_sq f4 [20, 2]
00000000: f249 f43b c192 d73b e9e2 c839 66fc d339
00000010: 067f 523c 7ed2 3a3c f1b0 fc3a fb7a de3a
00000020: 408f 7439 550c 6f39 4828 9e3b 2bba 863c
00000030: c440 3c34 cf37 6135 58cc 903c 3d97 6a3c
00000040: 5a9a 9833 e5d6 9033 7511 c93b 011e b13b
00000050: 1665 ca38 c778 c738 9d33 8639 5517 6339
00000060: 65e7 4333 683c 2b33 04e2 7a30 1b7f 5b31
00000070: 619a 883d 4441 b73d 96bf 323c eda3 1e3c
00000080: 354e 103b 7818 fc3a 3331 133a a274 fe39
00000090: 88a0 a533 c077 a333 54bc bc31 007f 0c32
0.007455104 0.0065787737 0.00038316034 0.00040433108 0.012847668 0.011402724 0.0019278807 0.0016973907
0.00023323018 0.0002279741 0.0048265792 0.016446194 1.7532426e-07 8.3900244e-07 0.017675564 0.014318285
7.106128e-08 6.7446116e-08 0.0061361142 0.005405188 9.650939e-05 9.511556e-05 0.00025596927 0.00021657099
4.5612428e-08 3.986898e-08 9.127066e-10 3.1940945e-09 0.066700704 0.08947995 0.010909935 0.009682638
0.0022019271 0.0019233366 0.0005614936 0.00048533553 7.712612e-08 7.6120614e-08 5.4929306e-09 8.177949e-09

exp_avg f4 [20]
00000000: 503b b8bc 6954 233c e526 eabc 770b 1d3c
00000010: cceb 29b8 4adb 3abe f8df 27b8 e2ef f7bc
00000020: d5ab 59b5 2123 913c b8a1 8d3a 2c1f 4cbb
00000030: 1063 f1b5 d73b 5eb6 efae bd3d 9ad4 d73c
00000040: 30c5 563c 586b 023c a6e4 44b6 146b 5d36
-0.02248922 0.009968855 -0.028583 0.009585253 -4.0512343e-05 -0.18247715 -4.002449e-05 -0.030265752
-8.108885e-07 0.017716946 0.0010805642 -0.003114651 -1.798473e-06 -3.311541e-06 0.092618816 0.026346494
0.013108537 0.007960163 -2.9339367e-06 3.2993894e-06

exp_avg_sq f4 [20]
00000000: 8d28 b23c 6f10 a93a d819 1a3d 1a26 ba3b
00000010: 632b 3d3a d953 cb3d b0ea 1536 dca2 403d
00000020: fdfa 9134 8eb5 933c d1cc 9d39 1ebd 433a
00000030: 890a 3134 3046 f731 ab6b c83e ffd5 033d
00000040: f96d d33b b712 d73a e9a3 9d34 4cd8 b332
0.021747852 0.0012898574 0.037622303 0.0056808116 0.0007216243 0.09928102 2.2339336e-06 0.047030315
2.7190973e-07 0.018030908 0.00030097974 0.00074668403 1.6488242e-07 7.1966255e-09 0.39144644 0.032186504
0.0064523187 0.0016408776 2.936279e-07 2.0936703e-08

exp_avg f4 [10, 20]
00000000: 7848 e3b6 c8e8 abb6 168b d837 0cab 73b6
00000010: fefc acb6 a79f 7e36 50b7 f027 5012 b037
00000020: 991e 14a2 6478 4bb7 9d9f 89b6 d09c c134
00000030: 2807 af1f fc99 e89e f938 95b7 4842 bd36
00000040: 8079 ff37 89c3 d737 ca6e 8ca5 bec3 4121
00000050: 94b5 2aba ca8e 02b9 0ab1 b8ba 1ce3 0139
00000060: c1c9 07ba 462b 00b8 1081 902e 4c39 29ba
00000070: 1d15 d6a5 a908 0e39 d3df f8b8 3ab4 4039
00000080: 401a 232b 0298 ba32 06b1 173a 9c4f 2b39
00000090: 2889 7eb9 a22d 8fb8 826a b9a8 da44 34b4
000000a0: 60d7 65bc a213 8d3a 7acd e6bc c2c7 103b
000000b0: 588f 0dbc 2897 113a 31ff 5038 dedd 95bc
000000c0: ff24 0c33 0e80 563b 8604 4aba 62a8 5b3b
000000d0: 7959 1c2e 8c30 69b4 7e74 d63b 2e30 2e3b
000000e0: b918 cebb 8e17 55bb 3dac b6b3 e409 1036
000000f0: 2a5a 42bc 2262 8c3a 626e c4bc 19c6 683b
00000100: c646 f7bb b0a5 773a a3d4 5637 4223 5dbc
00000110: bad9 c227 4d4a 8b3b 9be6 26ba a5d7 693b
00000120: 3c6c 382d 9843 9135 acfb e63b 5fd9 9a3b
00000130: 0cee 5abb a004 5aba 8672 252d 5e79 9a35
00000140: f7db cba4 6f53 4335 a9b5 9dad a473 c3a2
00000150: 1405 6d35 609b 6921 380f 1422 61be a221
00000160: 6e29 42a0 3b30 c4a1 f2b7 4cb5 1055 1fb6
00000170: a438 84a1 04cc b2a1 5b04 c8aa 7011 7ea2
00000180: fa65 bab3 96bb f4b3 31b2 5d21 66e8 bd21
00000190: 37f5 5d3c c2b2 5c3b c5f4 f53c 2ab7 36bb
000001a0: d26a 4e3c c096 30ba dd15 4c37 d6f8 633c
000001b0: 70e8 b3b2 4ed3 33bb ecb8 5e3b df06 56bb
000001c0: 610b 35ae fc46 e534 607a faba 5ebf 58bb
000001d0: 3cb3 fd3b 83cf 9b3b 19d3 bc33 0c84 08b6
000001e0: ca38 86bc b9ab 3a3a 502a 08bd 9e7f 5a3b
000001f0: 77ef 32bc 52d4 993a 1e08 ad37 318a 9dbc
00000200: 364d 692a 2c44 8a3b 0dd4 9eba 6338 883b
00000210: 7e2d 93ad cc5f 5c34 2cc4 053c 446a 853b
00000220: 0d36 e6bb 0423 51bb 5586 3cb0 2cad 1736
00000230: fbf8 3434 ce7d 44b4 2d33 24b5 aba1 07b3
00000240: 5c12 84b4 8bc0 ddb3 2b53 2f22 9210 89b3
00000250: ba66 2221 455f 80b2 29d7 28b4 3f27 6632
00000260: 85cb a6a1 304d 292e c2d1 b2b3 5048 adb0
00000270: 7454 81b4 b185 55b4 cd33 1b21 88a1 f921
00000280: 0d8b 2fb9 a672 9eb8 831c 48b9 5839 fdb8
00000290: a6ae 1bb9 9efa ae36 13b0 3b26 942f 3db9
000002a0: cf00 bb1f 388b deb8 f008 1cb9 df8d 9eb8
000002b0: 3777 f121 dfbc 872c e862 44b8 db2e 18b9
000002c0: 0a73 35b9 d8cb 33b9 dce9 989f 788a 02ad
000002d0: c28f 48bb 5ebb 4c38 6d4f ccbb e3fd 3f3a
000002e0: e955 08bb 0f29 9139 c547 812e 88d5 5ebb
000002f0: de4b 87a5 43c9 5e3a 368a 9cb9 ce3d 673a
00000300: 403b 852b 6970 9834 90f2 fe3a c415 7a3a
00000310: adb1 8aba acd2 cdb9 8ee2 8327 30ce 7f33
-6.7735637e-06 -5.1232964e-06 2.5813973e-05 -3.6309384e-06 -5.1554516e-06 3.794188e-06 6.681213e-15 2.0989362e-05
-2.0073938e-18 -1.21277735e-05 -4.1014996e-06 3.6063147e-07 7.412722e-20 -2.4627642e-20 -1.7788714e-05 5.640355e-06
3.0454947e-05 2.572105e-05 -2.4361202e-16 6.5650006e-19 -0.00065120426 -0.00012450959 -0.0014090848 0.00012387004
-0.0005179905 -3.055788e-05 6.571288e-11 -0.0006455376 -3.713739e-16 0.00013545401 -0.00011867252 0.00018377687
5.794566e-13 2.1722375e-08 0.00057865714 0.00016337488 -0.00024274422 -6.827271e-05 -2.0585316e-14 -1.6788854e-07
-0.0140284 0.0010763297 -0.02817415 0.0022091721 -0.008640133 0.0005553835 4.982873e-05 -0.018294271
3.2629938e-08 0.0032730135 -0.00077063625 0.0033517112 3.554976e-11 -2.1717477e-07 0.0065446487 0.002657901
-0.0062895683 -0.003251526 -8.5063654e-08 2.146343e-06 -0.011862317 0.0010710398 -0.023978416 0.0035518466
-0.0075462786 0.00094469916 1.2804902e-05 -0.013497176 5.4081876e-15 0.0042508007 -0.00063667604 0.0035681513
1.0483222e-11 1.0823014e-06 0.0070490446 0.0047256197 -0.0033406047 -0.0008316729 9.404593e-12 1.1509217e-06
-8.840985e-17 7.276457e-07 -1.7929507e-11 -5.2977295e-18 8.829677e-07 7.914911e-19 2.0065797e-18 1.102794e-18
-1.6446147e-19 -1.3294243e-18 -7.62636e-07 -2.374236e-06 -8.959661e-19 -1.2115752e-18 -3.553016e-13 -3.443265e-18
-8.6798494e-08 -1.1396257e-07 7.5113547e-19 1.2868654e-18 0.013547233 0.0033675884 0.030023942 -0.002788017
0.01259871 -0.00067363307 1.2164438e-05 0.013914308 -2.0944043e-08 -0.002743918 0.0033984734 -0.0032657904
-4.1164742e-11 4.2706222e-07 -0.0019109957 -0.0033073048 0.0077423137 0.004754962 8.7928306e-08 -2.034244e-06
-0.016384501 0.00071209256 -0.033243477 0.0033340226 -0.010921351 0.001173625 2.0626987e-05 -0.019230934
2.0721345e-13 0.0042195525 -0.0012117639 0.0041571124 -1.6732168e-11 2.0523947e-07 0.008164447 0.0040715057
-0.0070254863 -0.003191174 -6.85849e-10 2.2601553e-06 1.6854385e-07 -1.829969e-07 -6.116923e-07 -3.1579173e-08
-2.4600274e-07 -1.0326138e-07 2.3760951e-18 -6.382574e-08 5.502369e-19 -1.4944485e-08 -1.5724494e-07 1.33966855e-08
-1.1302469e-18 3.8494707e-11 -8.3269256e-08 -1.2607959e-09 -2.408957e-07 -1.9885807e-07 5.25846e-19 1.6915653e-18
-0.00016741101 -7.555382e-05 -0.00019084108 -0.00012074661 -0.00014847014 5.21478e-06 6.5117283e-16 -0.00018042169
7.919892e-20 -0.000106117164 -0.00014880649 -7.560453e-05 1.6362351e-18 3.8578997e-12 -4.6822155e-05 -0.00014513305
-0.0001730436 -0.00017146708 -6.476139e-20 -7.420391e-12 -0.0030603264 4.881189e-05 -0.006235054 0.0007323904
-0.002080316 0.00027687146 5.87899e-11 -0.0034001786 -2.3470177e-16 0.0008498618 -0.00029857614 0.00088211603
9.466664e-13 2.8393995e-07 0.0019450951 0.00095399865 -0.0010581516 -0.0003925761 3.6605435e-15 5.955934e-08

exp_avg_sq f4 [10, 20]
00000000: 0c6b 6a31 0323 0631 f9aa 4332 bc94 a031
00000010: dbe2 6231 f183 042f 5754 f12e 366c 2f32
00000020: 2499 e52e bab1 3131 0510 3631 f355 cc31
00000030: 02eb 1a2e c704 472b e2d5 ba30 610f db31
00000040: ea94 8032 06f9 7a32 43c7 fb2c c243 b12e
00000050: f582 f136 4d41 5e37 accf 0438 8f0a b736
00000060: 6b33 a337 6313 a534 e2ee 0d31 2ccc 6a37
00000070: 9871 992f 3b00 8736 2609 a637 bc3a b936
00000080: 00b9 522f 4dd6 532c ae00 6f36 46ff 4337
00000090: be0b 1238 a8d5 3638 e1b3 ef2f e4cd e72d
000000a0: cebb d23a beaf 583b e15e e03b dac6 a93a
000000b0: 2536 963b fcfb b438 615c 7836 2b67 413b
000000c0: 5517 f633 c0d9 7c3a b7a4 9c3b af57 023b
000000d0: 23b7 a332 427b 3c30 32e3 833a 89a5 2f3b
000000e0: 350c 053c 9900 2c3c ac18 e433 e7aa 6031
000000f0: 11d0 8b3a 0305 053b 6413 9a3b 7bb6 613a
00000100: 8361 3e3b f126 7738 c4f0 2635 b1d5 0a3b
00000110: 80d0 8c32 a0c4 2e3a a621 3f3b 425a 6e3a
00000120: 4ec9 3832 e484 992f 5388 3b3a 0439 f23a
00000130: 215d b13b dbfc d93b e7df 1933 ecf7 e230
00000140: a4f2 2732 957f b834 80ed 8533 c082 c42f
00000150: fdee b034 ed9b ec2e d5e0 6931 4f47 022f
00000160: fa73 ae2d 90d1 8930 4d27 8b34 5620 cc34
00000170: 8cb6 582e 7ea9 5b2e 72ad 4133 93e5 fc2f
00000180: a6ef 0c34 e9db 0b34 3d4e 2a2e cc8f 842e
00000190: 1a6a dd3a 1d1e 623b 3f5c e93b 0954 b83a
000001a0: af80 9c3b a8b4 c738 488d 5c36 5c1d 543b
000001b0: be9a f233 04ab 883a acb6 a43b 3007 063b
000001c0: 9d70 b232 8fab 5430 d3bf 8a3a 9ec6 3e3b
000001d0: f2a8 0d3c 56c4 363c 5419 e633 f5e4 7a31
000001e0: 3dd7 da3a 6a24 4e3b 3612 f13b f544 b13a
000001f0: b9f6 933b 1510 c338 4724 7e35 c00d 5b3b
00000200: 9d85 0633 9a83 893a 4c5b 943b 9f07 b93a
00000210: edd6 8532 7522 1230 3c1c 933a 9d62 3e3b
00000220: c5e4 0a3c 343e 2a3c 7e3e 6833 e565 2d31
00000230: cf11 3a2d ffdb 3e33 bba0 1f32 6221 1b2f
00000240: 025d 2833 75cd 092e e707 512f 02f7 fc2d
00000250: 0916 032e 2bf6 a72c 5b9d 0333 327a 0033
00000260: 43fe 6c2e 486d 572e ce27 1d32 2a7f f12d
00000270: 6561 3532 f665 4e32 6938 372f f64f ab2e
00000280: 093c a734 f864 b733 552c 9935 6395 7234
00000290: 5a1c c734 1ed1 4431 c8d9 262f bf04 7335
000002a0: ec6c 932b 3f39 2d34 5c9d c034 5bbe bb33
000002b0: 6c75 162f a22f c42a ca98 a233 74d6 0435
000002c0: d00b a735 7aa3 b235 78df 8b2b 626e 0d2a
000002d0: f0eb 7c38 d5f7 e238 d81e 8b39 37e0 5b38
000002e0: a91e 2439 0c08 8636 d449 7431 46d6 0c39
000002f0: 102b c92f 7b0e 3038 0daf 2339 9fdb 2838
00000300: 0f46 e92f 98f9 212f b3ee 4a38 c23f f138
00000310: 059f a639 58e7 c539 3ef1 5230 cef3 5a2f
3.411233e-09 1.9519468e-09 1.1389369e-08 4.673522e-09 3.301628e-09 1.2052205e-10 1.0974393e-10 1.0210945e-08
1.04409176e-10 2.5857916e-09 2.6493592e-09 5.9469527e-09 3.5224275e-11 7.070563e-13 1.359407e-09 6.3754872e-09
1.496888e-08 1.4608537e-08 7.1559716e-12 8.061064e-11 7.197605e-06 1.3247435e-05 3.1664662e-05 5.455054e-06
1.9455058e-05 3.074775e-07 2.065399e-09 1.3995024e-05 2.791125e-10 4.0233404e-06 1.9793002e-05 5.520267e-06
1.9165114e-10 3.0103864e-12 3.561417e-06 1.1682341e-05 3.482005e-05 4.3591164e-05 4.3601658e-10 2.6353093e-11
0.0016077699 0.0033063735 0.006847248 0.0012952939 0.0045840912 8.6300046e-05 3.7008651e-06 0.0029510956
1.1459512e-07 0.00096454844 0.0047803777 0.001988869 1.9058978e-08 6.856916e-10 0.0010062216 0.0026801548
0.008120586 0.010498189 1.0621565e-07 3.2693437e-09 0.0010666867 0.0020297177 0.0047020186 0.00086102606
0.002904982 5.8925656e-05 6.219018e-07 0.00211845 1.639296e-08 0.00066668727 0.0029164343 0.0009092429
1.0755981e-08 2.7924962e-10 0.0007153798 0.0018480127 0.005412713 0.006652457 3.5826726e-08 1.6514128e-09
9.7758495e-09 3.43655e-07 6.236496e-08 3.5745096e-10 3.2956441e-07 1.07597355e-10 3.4033765e-09 1.1848765e-10
1.9833014e-11 1.0027623e-09 2.5919363e-07 3.8021489e-07 4.9274848e-11 4.9945374e-11 4.5094062e-08 4.6001655e-10
1.31257e-07 1.3025387e-07 3.8723014e-11 6.0282085e-11 0.0016892583 0.0034502812 0.0071215923 0.001406313
0.0047760825 9.522709e-05 3.2864791e-06 0.0032366132 1.12971506e-07 0.0010426943 0.005026659 0.0020451061
2.0773138e-08 7.736895e-10 0.0010585733 0.0029110084 0.008646237 0.011155209 1.0714817e-07 3.6509935e-09
0.0016696226 0.003145481 0.0073569072 0.0013524579 0.0045154956 9.30132e-05 9.4675164e-07 0.0033424944
3.1320827e-08 0.0010491491 0.004527485 0.0014116651 1.5580975e-08 5.3163457e-10 0.0011223624 0.0029050477
0.0084773945 0.010390807 5.4073546e-08 2.5232734e-09 1.057683e-11 4.4437908e-08 9.291564e-09 1.4109028e-10
3.920014e-08 3.1332676e-11 1.9011247e-10 2.8758777e-11 2.9805523e-11 4.7737556e-12 3.064393e-08 2.991346e-08
5.3886017e-11 4.89824e-11 9.147653e-09 2.7455e-11 1.0557732e-08 1.2013961e-08 1.6663794e-10 7.7903836e-11
3.1149855e-07 8.539968e-08 1.1412291e-06 2.2592353e-07 3.7087267e-07 2.8640623e-09 1.5174983e-10 9.053146e-07
1.047521e-12 1.6132707e-07 3.587728e-07 8.7424915e-08 1.3684137e-10 3.4849646e-13 7.571505e-08 4.94859e-07
1.2445907e-06 1.3309611e-06 9.938569e-13 1.2561612e-13 6.0301216e-05 0.00010822682 0.00026535126 5.2422485e-05
0.0001565168 3.994448e-06 3.554864e-09 0.00013431264 3.6592285e-10 4.1975156e-05 0.00015610103 4.025886e-05
4.2432233e-10 1.4731538e-10 4.838286e-05 0.00011503651 0.00031780466 0.00037747133 7.674038e-10 1.9913601e-10

exp_avg f4 [10]
00000000: 1a61 0139 d1aa 87ba b46f adbc 24a9 63bc
00000010: 2cf0 90b5 ac6b ca3c 01dc c1bc 3956 eeb4
00000020: ef4e 48b9 9ea5 85bb
0.00012338572 -0.001035059 -0.021171428 -0.013895307 -1.0798735e-06 0.024709545 -0.023664476 -4.439369e-07
-0.00019102891 -0.004078581

exp_avg_sq f4 [10]
00000000: d349 8533 7e4e 0539 8d8b ed3c d221 a53c
00000010: 8186 c234 9aab fb3c cb93 013d c477 1633
00000020: cfb1 b336 403d 9e3a
6.206724e-08 0.00012713109 0.028997207 0.020157728 3.623318e-07 0.030721474 0.031635087 3.5033523e-08
5.3553154e-06 0.0012072697

exp_avg f4 [10, 10]
00000000: 189f c937 5bcb 9f3a 835b 3d3b 3fc7 bc3a
00000010: 31d5 df20 15df 22bb a4ef a93a b17c 6fb4
00000020: 4805 2a39 40ac d039 f2c2 ffb7 2273 f0ba
00000030: 58f3 1ebb 8258 a9ba a883 e42b 9216 c93a
00000040: d024 80ba 09fb ac33 1544 46b9 ba4b 2bba
00000050: 087a 49b8 a3ae 19bb eabe 4dbb 935f ebba
00000060: 9613 8c32 4b40 ea3a ac56 94ba 7668 7b33
00000070: 0630 4cb9 0cd5 6eba 5961 03b8 e378 e0ba
00000080: 3fd6 1fbb 2c55 a9ba 7993 0524 de32 e03a
00000090: fe47 46ba 0c84 2233 2c9d 41b9 e89c 05ba
000000a0: 18d2 a2b7 b435 d0ba a3c5 0dbb ee16 91ba
000000b0: f50b 46a4 7d24 923a 74d2 1eba f2c3 9332
000000c0: 2cac 36b9 6105 10ba a0e2 cab7 650c e9ba
000000d0: e408 1abb 0405 a0ba d865 6b22 40f8 a93a
000000e0: 644b 4fba 366f 55b3 1182 39b9 d6c9 30ba
000000f0: 9706 1638 ddfc 093b 6e7f 403b 3f65 e03a
00000100: d173 46a2 7241 eeba f3dc 843a 2e11 a9b3
00000110: 6d8b 3b39 feec 423a 5ab8 a3a3 78e7 262b
00000120: 2bdf 0c2c c301 fcab 33c7 729f e30b 882b
00000130: 7845 23ab 705a 1d1f b7eb b42a e111 74ac
00000140: 7591 bbb4 3a8b 3138 71af d438 3f94 5538
00000150: 8a12 3c2f a408 4eb5 b5af 3438 0793 4d2f
00000160: c523 6d34 91b1 3937 0757 35b8 43d8 e4ba
00000170: 2226 4bbb 20af 9fba 8760 01b0 3857 243b
00000180: ee65 6cba cc77 e7b3 8293 4cb9 a4f8 b7b9
2.4035151e-05 0.0012191342 0.0028893657 0.0014402642 3.7918748e-19 -0.0024852206 0.0012965095 -2.2303972e-07
0.00016214431 0.00039801188 -3.0489147e-05 -0.0018344859 -0.002425393 -0.0012920054 1.6236916e-12 0.001534181
-0.0009776596 8.055037e-08 -0.00018908114 -0.00065344165 -4.8035785e-05 -0.002345004 -0.0031394311 -0.001795756
1.6307052e-08 0.0017871944 -0.0011317334 5.85355e-08 -0.00019472846 -0.0009110726 -3.1323496e-05 -0.0017125871
-0.0024389175 -0.001291906 2.8964692e-17 0.0017105003 -0.0007563828 3.783866e-08 -0.00018464465 -0.0005096928
-1.9409737e-05 -0.0015885145 -0.0021632693 -0.0011069456 -4.2944534e-17 0.001114979 -0.00060585816 1.7202158e-08
-0.00017421012 -0.00054939656 -2.4185807e-05 -0.0017780183 -0.0023503834 -0.0012208526 3.1902354e-18 0.0012967661
-0.00079076574 -4.9694073e-08 -0.00017691428 -0.0006743943 3.5768924e-05 0.002105526 0.002937283 0.0017120017
-2.6895316e-18 -0.0018177463 0.0010136649 -7.872801e-08 0.0001788565 0.0007435827 -1.7750571e-17 5.9296274e-13
2.001908e-12 -1.7906166e-12 -5.1410267e-20 9.66668e-13 -5.800564e-13 3.332085e-20 3.2137983e-13 -3.468441e-12
-3.4937298e-07 4.2329753e-05 0.00010141626 5.0921222e-05 1.7105087e-10 -7.6753554e-07 4.3078984e-05 1.8696876e-10
2.2085358e-07 1.1068202e-05 -4.3234813e-05 -0.001745947 -0.003099807 -0.0012182929 -4.70671e-10 0.00250764
-0.0009017874 -1.0778567e-07 -0.00019509907 -0.00035089732

exp_avg_sq f4 [10, 10]
00000000: fc75 3832 c633 9e38 ff1c 3939 d856 0d39
00000010: 111f 632f 9f40 b639 a1d2 6138 214f 642f
00000020: 2e2e 7c35 7f11 9f38 1500 7332 23d1 e138
00000030: 2d41 9639 5ff6 4139 4477 2933 499d de39
00000040: 8873 b838 5062 7b2f d31a c635 8f97 c338
00000050: b87c c632 93a6 4f39 11e6 053a 95b3 a739
00000060: 521a f033 e89d 393a 0069 2a39 2859 d52f
00000070: 01ef 0e36 a4de 2339 c3aa 7132 9960 f738
00000080: 821f a239 1056 5139 712e 8632 bd69 ed39
00000090: eb2e c838 2f36 fc2f ec5e cd35 61e7 d138
000000a0: 8a36 1732 9fdf fe37 6acf d138 3c3a 9738
000000b0: 3694 8a31 ab6f 3e39 fbc5 da37 73dc 962b
000000c0: 8bbc 8835 445d 2738 2548 3e32 31b6 9d38
000000d0: 037e 5239 8a6b 0c39 ee16 9e2f eab2 a439
000000e0: 1943 7b38 7582 772e 0b50 a235 4166 9238
000000f0: e223 8f32 88e3 4539 bb2a f039 9c6b 9b39
00000100: bc34 f42f f461 313a a3e3 1a39 e541 f72f
00000110: 5948 f535 3674 1839 1ea4 2e2f f071 0931
00000120: d694 1531 7458 d930 3264 c92b a61d e031
00000130: 0993 ba30 e3ca 292d af27 b42f 03f3 9330
00000140: 18a6 6c31 7877 5a32 674d a035 69cf 2b33
00000150: 9a1b 8633 0848 1836 1c1a f933 0391 aa2f
00000160: abb4 0d32 d5b8 1432 e679 ac32 e20a 1a39
00000170: b7cf ce39 a596 8439 9e56 a233 946f 183a
00000180: 96c4 fb38 abbe 2f2e 549c 0236 ba6e 0539
1.0737036e-08 7.543671e-05 0.00017653777 0.0001347916 2.0656567e-10 0.00034761892 5.3840344e-05 2.0764591e-10
9.3944516e-07 7.58497e-05 1.414448e-08 0.00010767791 0.0002865879 0.00018497695 3.945685e-08 0.00042460326
8.795323e-05 2.2863245e-10 1.4759956e-06 9.3265546e-05 2.310695e-08 0.00019803112 0.000510783 0.0003198652
1.11806585e-07 0.000708072 0.00016251579 3.8807824e-10 2.1298767e-06 0.00015627831 1.4066873e-08 0.000117958705
0.00030922523 0.00019963854 1.5620772e-08 0.00045282944 9.545482e-05 4.5877033e-10 1.5301316e-06 0.00010008994
8.8017575e-09 3.0383291e-05 0.000100045305 7.211088e-05 4.0331782e-09 0.00018161412 2.6079817e-05 1.0719328e-12
1.0187663e-06 3.9902763e-05 1.1075859e-08 7.520279e-05 0.00020074104 0.00013391502 2.8756325e-10 0.0003141382
5.9905553e-05 5.6277167e-11 1.2093236e-06 6.980869e-05 1.6663709e-08 0.00018872146 0.00045808204 0.0002964408
4.4420811e-10 0.00067666103 0.00014771386 4.497586e-10 1.8274978e-06 0.00014539142 1.5883514e-10 2.000089e-09
2.1766957e-09 1.5813968e-09 1.4309719e-12 6.5226287e-09 1.3575071e-09 9.651588e-12 3.2770006e-10 1.0764726e-09
3.4436933e-09 1.2716434e-08 1.1943456e-06 4.000268e-08 6.244882e-08 2.2691693e-06 1.1599715e-07 3.1025857e-10
8.248359e-09 8.65676e-09 2.0078868e-08 0.00014690639 0.0003944614 0.0002528924 7.5594684e-08 0.0005814966
0.0001200523 3.995974e-11 1.9462504e-06 0.00012725117

exp_avg f4 [10]
00000000: 327e 373a 2f4f 80bb 16a1 adbb 4187 5cbb
00000010: 67c7 7abb 9dc2 86bb 8452 5b3b a69b 2bac
00000020: 0029 7f39 9ca3 34bb
0.00069997006 -0.0039156894 -0.005298744 -0.0033649954 -0.0038265826 -0.004112555 0.0033465931 -2.4386964e-12
0.00024333969 -0.002756334

exp_avg_sq f4 [10]
00000000: 04f8 973a d189 bd3a 3bfc 143b 6345 c83a
00000010: 6d4b 4c3a 185d 933a 03e8 053b 3187 0032
00000020: 492b 8536 93bd 013b
0.00115943 0.0014460628 0.002273335 0.0015279468 0.0007793222 0.0011242954 0.002043248 7.48132e-09
3.968748e-06 0.0019796833

exp_avg f4 [2, 10]
00000000: 3359 343b 86db 4ebb 27a1 3ebb 1dd4 7bbb
00000010: c421 36bb e4e7 22bb 58c4 613a 3f09 592c
00000020: 3d3a c2b6 96f8 5cbb fa8e 34bb b7b5 513b
00000030: 17ec 3c3b a885 713b 4c47 283b 29a4 263b
00000040: 1003 adba a75c 5dac 7953 b4b7 fb32 663b
0.0027518987 -0.0031563952 -0.0029087754 -0.003842599 -0.0027791122 -0.0024857456 0.00086123263 3.0842687e-12
-5.7884304e-06 -0.0033717505 -0.002755104 0.003199918 0.0028827244 0.0036853347 0.0025677262 0.0025427437
-0.0013199765 -3.1457421e-12 -2.1496542e-05 0.0035125602

exp_avg_sq f4 [2, 10]
00000000: ed0d 0e39 fb6f 8039 35e3 8439 6bd6 c539
00000010: e64a c438 b849 2739 5f8b 783a 6aa8 7c31
00000020: 2c12 b235 f033 8439 0d10 0e39 957e 8039
00000030: 46da 8439 9a92 c539 2f8d c338 6c67 2739
00000040: 1e0d 793a 0c04 7f31 ae40 b835 4e65 8439
0.00013547363 0.00024497494 0.00025346284 0.00037734522 9.359959e-05 0.00015953823 0.0009481217 3.6766559e-09
1.3267322e-06 0.00025215698 0.00013548155 0.00024508373 0.00025339628 0.00037683995 9.324622e-05 0.00015964889
0.0009500551 3.7109684e-09 1.3727893e-06 0.0002525248

exp_avg f4 [2]
00000000: a7b0 0fbb a3f5 063b
-0.0021925361 0.0020593188

exp_avg_sq f4 [2]
00000000: e19b 963a c5a7 963a
0.0011490547 0.0011494091
